{"keras_version": "2.0.8", "config": {"output_layers": [["dense_2", 0, 0]], "layers": [{"inbound_nodes": [], "config": {"dtype": "float32", "batch_input_shape": [null, null, null, 3], "name": "input_1", "sparse": false}, "name": "input_1", "class_name": "InputLayer"}, {"inbound_nodes": [[["input_1", 0, 0, {}]]], "config": {"kernel_initializer": {"config": {"scale": 1.0, "seed": null, "distribution": "uniform", "mode": "fan_avg"}, "class_name": "VarianceScaling"}, "bias_regularizer": null, "data_format": "channels_last", "strides": [2, 2], "bias_constraint": null, "filters": 32, "trainable": true, "name": "conv2d_1", "padding": "valid", "bias_initializer": {"config": {}, "class_name": "Zeros"}, "activation": "linear", "activity_regularizer": null, "dilation_rate": [1, 1], "kernel_constraint": null, "use_bias": false, "kernel_regularizer": null, "kernel_size": [3, 3]}, "name": "conv2d_1", "class_name": "Conv2D"}, {"inbound_nodes": [[["conv2d_1", 0, 0, {}]]], "config": {"beta_constraint": null, "beta_initializer": {"config": {}, "class_name": "Zeros"}, "epsilon": 0.001, "axis": 3, "moving_mean_initializer": {"config": {}, "class_name": "Zeros"}, "moving_variance_initializer": {"config": {}, "class_name": "Ones"}, "trainable": true, "name": "batch_normalization_1", "scale": false, "center": true, "beta_regularizer": null, "gamma_constraint": null, "momentum": 0.99, "gamma_regularizer": null, "gamma_initializer": {"config": {}, "class_name": "Ones"}}, "name": "batch_normalization_1", "class_name": "BatchNormalization"}, {"inbound_nodes": [[["batch_normalization_1", 0, 0, {}]]], "config": {"activation": "relu", "trainable": true, "name": "activation_1"}, "name": "activation_1", "class_name": "Activation"}, {"inbound_nodes": [[["activation_1", 0, 0, {}]]], "config": {"kernel_initializer": {"config": {"scale": 1.0, "seed": null, "distribution": "uniform", "mode": "fan_avg"}, "class_name": "VarianceScaling"}, "bias_regularizer": null, "data_format": "channels_last", "strides": [1, 1], "bias_constraint": null, "filters": 32, "trainable": true, "name": "conv2d_2", "padding": "valid", "bias_initializer": {"config": {}, "class_name": "Zeros"}, "activation": "linear", "activity_regularizer": null, "dilation_rate": [1, 1], "kernel_constraint": null, "use_bias": false, "kernel_regularizer": null, "kernel_size": [3, 3]}, "name": "conv2d_2", "class_name": "Conv2D"}, {"inbound_nodes": [[["conv2d_2", 0, 0, {}]]], "config": {"beta_constraint": null, "beta_initializer": {"config": {}, "class_name": "Zeros"}, "epsilon": 0.001, "axis": 3, "moving_mean_initializer": {"config": {}, "class_name": "Zeros"}, "moving_variance_initializer": {"config": {}, "class_name": "Ones"}, "trainable": true, "name": "batch_normalization_2", "scale": false, "center": true, "beta_regularizer": null, "gamma_constraint": null, "momentum": 0.99, "gamma_regularizer": null, "gamma_initializer": {"config": {}, "class_name": "Ones"}}, "name": "batch_normalization_2", "class_name": "BatchNormalization"}, {"inbound_nodes": [[["batch_normalization_2", 0, 0, {}]]], "config": {"activation": "relu", "trainable": true, "name": "activation_2"}, "name": "activation_2", "class_name": "Activation"}, {"inbound_nodes": [[["activation_2", 0, 0, {}]]], "config": {"kernel_initializer": {"config": {"scale": 1.0, "seed": null, "distribution": "uniform", "mode": "fan_avg"}, "class_name": "VarianceScaling"}, "bias_regularizer": null, "data_format": "channels_last", "strides": [1, 1], "bias_constraint": null, "filters": 64, "trainable": true, "name": "conv2d_3", "padding": "same", "bias_initializer": {"config": {}, "class_name": "Zeros"}, "activation": "linear", "activity_regularizer": null, "dilation_rate": [1, 1], "kernel_constraint": null, "use_bias": false, "kernel_regularizer": null, "kernel_size": [3, 3]}, "name": "conv2d_3", "class_name": "Conv2D"}, {"inbound_nodes": [[["conv2d_3", 0, 0, {}]]], "config": {"beta_constraint": null, "beta_initializer": {"config": {}, "class_name": "Zeros"}, "epsilon": 0.001, "axis": 3, "moving_mean_initializer": {"config": {}, "class_name": "Zeros"}, "moving_variance_initializer": {"config": {}, "class_name": "Ones"}, "trainable": true, "name": "batch_normalization_3", "scale": false, "center": true, "beta_regularizer": null, "gamma_constraint": null, "momentum": 0.99, "gamma_regularizer": null, "gamma_initializer": {"config": {}, "class_name": "Ones"}}, "name": "batch_normalization_3", "class_name": "BatchNormalization"}, {"inbound_nodes": [[["batch_normalization_3", 0, 0, {}]]], "config": {"activation": "relu", "trainable": true, "name": "activation_3"}, "name": "activation_3", "class_name": "Activation"}, {"inbound_nodes": [[["activation_3", 0, 0, {}]]], "config": {"pool_size": [3, 3], "data_format": "channels_last", "strides": [2, 2], "padding": "valid", "trainable": true, "name": "max_pooling2d_1"}, "name": "max_pooling2d_1", "class_name": "MaxPooling2D"}, {"inbound_nodes": [[["max_pooling2d_1", 0, 0, {}]]], "config": {"kernel_initializer": {"config": {"scale": 1.0, "seed": null, "distribution": "uniform", "mode": "fan_avg"}, "class_name": "VarianceScaling"}, "bias_regularizer": null, "data_format": "channels_last", "strides": [1, 1], "bias_constraint": null, "filters": 80, "trainable": true, "name": "conv2d_4", "padding": "valid", "bias_initializer": {"config": {}, "class_name": "Zeros"}, "activation": "linear", "activity_regularizer": null, "dilation_rate": [1, 1], "kernel_constraint": null, "use_bias": false, "kernel_regularizer": null, "kernel_size": [1, 1]}, "name": "conv2d_4", "class_name": "Conv2D"}, {"inbound_nodes": [[["conv2d_4", 0, 0, {}]]], "config": {"beta_constraint": null, "beta_initializer": {"config": {}, "class_name": "Zeros"}, "epsilon": 0.001, "axis": 3, "moving_mean_initializer": {"config": {}, "class_name": "Zeros"}, "moving_variance_initializer": {"config": {}, "class_name": "Ones"}, "trainable": true, "name": "batch_normalization_4", "scale": false, "center": true, "beta_regularizer": null, "gamma_constraint": null, "momentum": 0.99, "gamma_regularizer": null, "gamma_initializer": {"config": {}, "class_name": "Ones"}}, "name": "batch_normalization_4", "class_name": "BatchNormalization"}, {"inbound_nodes": [[["batch_normalization_4", 0, 0, {}]]], "config": {"activation": "relu", "trainable": true, "name": "activation_4"}, "name": "activation_4", "class_name": "Activation"}, {"inbound_nodes": [[["activation_4", 0, 0, {}]]], "config": {"kernel_initializer": {"config": {"scale": 1.0, "seed": null, "distribution": "uniform", "mode": "fan_avg"}, "class_name": "VarianceScaling"}, "bias_regularizer": null, "data_format": "channels_last", "strides": [1, 1], "bias_constraint": null, "filters": 192, "trainable": true, "name": "conv2d_5", "padding": "valid", "bias_initializer": {"config": {}, "class_name": "Zeros"}, "activation": "linear", "activity_regularizer": null, "dilation_rate": [1, 1], "kernel_constraint": null, "use_bias": false, "kernel_regularizer": null, "kernel_size": [3, 3]}, "name": "conv2d_5", "class_name": "Conv2D"}, {"inbound_nodes": [[["conv2d_5", 0, 0, {}]]], "config": {"beta_constraint": null, "beta_initializer": {"config": {}, "class_name": "Zeros"}, "epsilon": 0.001, "axis": 3, "moving_mean_initializer": {"config": {}, "class_name": "Zeros"}, "moving_variance_initializer": {"config": {}, "class_name": "Ones"}, "trainable": true, "name": "batch_normalization_5", "scale": false, "center": true, "beta_regularizer": null, "gamma_constraint": null, "momentum": 0.99, "gamma_regularizer": null, "gamma_initializer": {"config": {}, "class_name": "Ones"}}, "name": "batch_normalization_5", "class_name": "BatchNormalization"}, {"inbound_nodes": [[["batch_normalization_5", 0, 0, {}]]], "config": {"activation": "relu", "trainable": true, "name": "activation_5"}, "name": "activation_5", "class_name": "Activation"}, {"inbound_nodes": [[["activation_5", 0, 0, {}]]], "config": {"pool_size": [3, 3], "data_format": "channels_last", "strides": [2, 2], "padding": "valid", "trainable": true, "name": "max_pooling2d_2"}, "name": "max_pooling2d_2", "class_name": "MaxPooling2D"}, {"inbound_nodes": [[["max_pooling2d_2", 0, 0, {}]]], "config": {"kernel_initializer": {"config": {"scale": 1.0, "seed": null, "distribution": "uniform", "mode": "fan_avg"}, "class_name": "VarianceScaling"}, "bias_regularizer": null, "data_format": "channels_last", "strides": [1, 1], "bias_constraint": null, "filters": 64, "trainable": true, "name": "conv2d_9", "padding": "same", "bias_initializer": {"config": {}, "class_name": "Zeros"}, "activation": "linear", "activity_regularizer": null, "dilation_rate": [1, 1], "kernel_constraint": null, "use_bias": false, "kernel_regularizer": null, "kernel_size": [1, 1]}, "name": "conv2d_9", "class_name": "Conv2D"}, {"inbound_nodes": [[["conv2d_9", 0, 0, {}]]], "config": {"beta_constraint": null, "beta_initializer": {"config": {}, "class_name": "Zeros"}, "epsilon": 0.001, "axis": 3, "moving_mean_initializer": {"config": {}, "class_name": "Zeros"}, "moving_variance_initializer": {"config": {}, "class_name": "Ones"}, "trainable": true, "name": "batch_normalization_9", "scale": false, "center": true, "beta_regularizer": null, "gamma_constraint": null, "momentum": 0.99, "gamma_regularizer": null, "gamma_initializer": {"config": {}, "class_name": "Ones"}}, "name": "batch_normalization_9", "class_name": "BatchNormalization"}, {"inbound_nodes": [[["batch_normalization_9", 0, 0, {}]]], "config": {"activation": "relu", "trainable": true, "name": "activation_9"}, "name": "activation_9", "class_name": "Activation"}, {"inbound_nodes": [[["max_pooling2d_2", 0, 0, {}]]], "config": {"kernel_initializer": {"config": {"scale": 1.0, "seed": null, "distribution": "uniform", "mode": "fan_avg"}, "class_name": "VarianceScaling"}, "bias_regularizer": null, "data_format": "channels_last", "strides": [1, 1], "bias_constraint": null, "filters": 48, "trainable": true, "name": "conv2d_7", "padding": "same", "bias_initializer": {"config": {}, "class_name": "Zeros"}, "activation": "linear", "activity_regularizer": null, "dilation_rate": [1, 1], "kernel_constraint": null, "use_bias": false, "kernel_regularizer": null, "kernel_size": [1, 1]}, "name": "conv2d_7", "class_name": "Conv2D"}, {"inbound_nodes": [[["activation_9", 0, 0, {}]]], "config": {"kernel_initializer": {"config": {"scale": 1.0, "seed": null, "distribution": "uniform", "mode": "fan_avg"}, "class_name": "VarianceScaling"}, "bias_regularizer": null, "data_format": "channels_last", "strides": [1, 1], "bias_constraint": null, "filters": 96, "trainable": true, "name": "conv2d_10", "padding": "same", "bias_initializer": {"config": {}, "class_name": "Zeros"}, "activation": "linear", "activity_regularizer": null, "dilation_rate": [1, 1], "kernel_constraint": null, "use_bias": false, "kernel_regularizer": null, "kernel_size": [3, 3]}, "name": "conv2d_10", "class_name": "Conv2D"}, {"inbound_nodes": [[["conv2d_7", 0, 0, {}]]], "config": {"beta_constraint": null, "beta_initializer": {"config": {}, "class_name": "Zeros"}, "epsilon": 0.001, "axis": 3, "moving_mean_initializer": {"config": {}, "class_name": "Zeros"}, "moving_variance_initializer": {"config": {}, "class_name": "Ones"}, "trainable": true, "name": "batch_normalization_7", "scale": false, "center": true, "beta_regularizer": null, "gamma_constraint": null, "momentum": 0.99, "gamma_regularizer": null, "gamma_initializer": {"config": {}, "class_name": "Ones"}}, "name": "batch_normalization_7", "class_name": "BatchNormalization"}, {"inbound_nodes": [[["conv2d_10", 0, 0, {}]]], "config": {"beta_constraint": null, "beta_initializer": {"config": {}, "class_name": "Zeros"}, "epsilon": 0.001, "axis": 3, "moving_mean_initializer": {"config": {}, "class_name": "Zeros"}, "moving_variance_initializer": {"config": {}, "class_name": "Ones"}, "trainable": true, "name": "batch_normalization_10", "scale": false, "center": true, "beta_regularizer": null, "gamma_constraint": null, "momentum": 0.99, "gamma_regularizer": null, "gamma_initializer": {"config": {}, "class_name": "Ones"}}, "name": "batch_normalization_10", "class_name": "BatchNormalization"}, {"inbound_nodes": [[["batch_normalization_7", 0, 0, {}]]], "config": {"activation": "relu", "trainable": true, "name": "activation_7"}, "name": "activation_7", "class_name": "Activation"}, {"inbound_nodes": [[["batch_normalization_10", 0, 0, {}]]], "config": {"activation": "relu", "trainable": true, "name": "activation_10"}, "name": "activation_10", "class_name": "Activation"}, {"inbound_nodes": [[["max_pooling2d_2", 0, 0, {}]]], "config": {"pool_size": [3, 3], "data_format": "channels_last", "strides": [1, 1], "padding": "same", "trainable": true, "name": "average_pooling2d_1"}, "name": "average_pooling2d_1", "class_name": "AveragePooling2D"}, {"inbound_nodes": [[["max_pooling2d_2", 0, 0, {}]]], "config": {"kernel_initializer": {"config": {"scale": 1.0, "seed": null, "distribution": "uniform", "mode": "fan_avg"}, "class_name": "VarianceScaling"}, "bias_regularizer": null, "data_format": "channels_last", "strides": [1, 1], "bias_constraint": null, "filters": 64, "trainable": true, "name": "conv2d_6", "padding": "same", "bias_initializer": {"config": {}, "class_name": "Zeros"}, "activation": "linear", "activity_regularizer": null, "dilation_rate": [1, 1], "kernel_constraint": null, "use_bias": false, "kernel_regularizer": null, "kernel_size": [1, 1]}, "name": "conv2d_6", "class_name": "Conv2D"}, {"inbound_nodes": [[["activation_7", 0, 0, {}]]], "config": {"kernel_initializer": {"config": {"scale": 1.0, "seed": null, "distribution": "uniform", "mode": "fan_avg"}, "class_name": "VarianceScaling"}, "bias_regularizer": null, "data_format": "channels_last", "strides": [1, 1], "bias_constraint": null, "filters": 64, "trainable": true, "name": "conv2d_8", "padding": "same", "bias_initializer": {"config": {}, "class_name": "Zeros"}, "activation": "linear", "activity_regularizer": null, "dilation_rate": [1, 1], "kernel_constraint": null, "use_bias": false, "kernel_regularizer": null, "kernel_size": [5, 5]}, "name": "conv2d_8", "class_name": "Conv2D"}, {"inbound_nodes": [[["activation_10", 0, 0, {}]]], "config": {"kernel_initializer": {"config": {"scale": 1.0, "seed": null, "distribution": "uniform", "mode": "fan_avg"}, "class_name": "VarianceScaling"}, "bias_regularizer": null, "data_format": "channels_last", "strides": [1, 1], "bias_constraint": null, "filters": 96, "trainable": true, "name": "conv2d_11", "padding": "same", "bias_initializer": {"config": {}, "class_name": "Zeros"}, "activation": "linear", "activity_regularizer": null, "dilation_rate": [1, 1], "kernel_constraint": null, "use_bias": false, "kernel_regularizer": null, "kernel_size": [3, 3]}, "name": "conv2d_11", "class_name": "Conv2D"}, {"inbound_nodes": [[["average_pooling2d_1", 0, 0, {}]]], "config": {"kernel_initializer": {"config": {"scale": 1.0, "seed": null, "distribution": "uniform", "mode": "fan_avg"}, "class_name": "VarianceScaling"}, "bias_regularizer": null, "data_format": "channels_last", "strides": [1, 1], "bias_constraint": null, "filters": 32, "trainable": true, "name": "conv2d_12", "padding": "same", "bias_initializer": {"config": {}, "class_name": "Zeros"}, "activation": "linear", "activity_regularizer": null, "dilation_rate": [1, 1], "kernel_constraint": null, "use_bias": false, "kernel_regularizer": null, "kernel_size": [1, 1]}, "name": "conv2d_12", "class_name": "Conv2D"}, {"inbound_nodes": [[["conv2d_6", 0, 0, {}]]], "config": {"beta_constraint": null, "beta_initializer": {"config": {}, "class_name": "Zeros"}, "epsilon": 0.001, "axis": 3, "moving_mean_initializer": {"config": {}, "class_name": "Zeros"}, "moving_variance_initializer": {"config": {}, "class_name": "Ones"}, "trainable": true, "name": "batch_normalization_6", "scale": false, "center": true, "beta_regularizer": null, "gamma_constraint": null, "momentum": 0.99, "gamma_regularizer": null, "gamma_initializer": {"config": {}, "class_name": "Ones"}}, "name": "batch_normalization_6", "class_name": "BatchNormalization"}, {"inbound_nodes": [[["conv2d_8", 0, 0, {}]]], "config": {"beta_constraint": null, "beta_initializer": {"config": {}, "class_name": "Zeros"}, "epsilon": 0.001, "axis": 3, "moving_mean_initializer": {"config": {}, "class_name": "Zeros"}, "moving_variance_initializer": {"config": {}, "class_name": "Ones"}, "trainable": true, "name": "batch_normalization_8", "scale": false, "center": true, "beta_regularizer": null, "gamma_constraint": null, "momentum": 0.99, "gamma_regularizer": null, "gamma_initializer": {"config": {}, "class_name": "Ones"}}, "name": "batch_normalization_8", "class_name": "BatchNormalization"}, {"inbound_nodes": [[["conv2d_11", 0, 0, {}]]], "config": {"beta_constraint": null, "beta_initializer": {"config": {}, "class_name": "Zeros"}, "epsilon": 0.001, "axis": 3, "moving_mean_initializer": {"config": {}, "class_name": "Zeros"}, "moving_variance_initializer": {"config": {}, "class_name": "Ones"}, "trainable": true, "name": "batch_normalization_11", "scale": false, "center": true, "beta_regularizer": null, "gamma_constraint": null, "momentum": 0.99, "gamma_regularizer": null, "gamma_initializer": {"config": {}, "class_name": "Ones"}}, "name": "batch_normalization_11", "class_name": "BatchNormalization"}, {"inbound_nodes": [[["conv2d_12", 0, 0, {}]]], "config": {"beta_constraint": null, "beta_initializer": {"config": {}, "class_name": "Zeros"}, "epsilon": 0.001, "axis": 3, "moving_mean_initializer": {"config": {}, "class_name": "Zeros"}, "moving_variance_initializer": {"config": {}, "class_name": "Ones"}, "trainable": true, "name": "batch_normalization_12", "scale": false, "center": true, "beta_regularizer": null, "gamma_constraint": null, "momentum": 0.99, "gamma_regularizer": null, "gamma_initializer": {"config": {}, "class_name": "Ones"}}, "name": "batch_normalization_12", "class_name": "BatchNormalization"}, {"inbound_nodes": [[["batch_normalization_6", 0, 0, {}]]], "config": {"activation": "relu", "trainable": true, "name": "activation_6"}, "name": "activation_6", "class_name": "Activation"}, {"inbound_nodes": [[["batch_normalization_8", 0, 0, {}]]], "config": {"activation": "relu", "trainable": true, "name": "activation_8"}, "name": "activation_8", "class_name": "Activation"}, {"inbound_nodes": [[["batch_normalization_11", 0, 0, {}]]], "config": {"activation": "relu", "trainable": true, "name": "activation_11"}, "name": "activation_11", "class_name": "Activation"}, {"inbound_nodes": [[["batch_normalization_12", 0, 0, {}]]], "config": {"activation": "relu", "trainable": true, "name": "activation_12"}, "name": "activation_12", "class_name": "Activation"}, {"inbound_nodes": [[["activation_6", 0, 0, {}], ["activation_8", 0, 0, {}], ["activation_11", 0, 0, {}], ["activation_12", 0, 0, {}]]], "config": {"trainable": true, "name": "mixed0", "axis": 3}, "name": "mixed0", "class_name": "Concatenate"}, {"inbound_nodes": [[["mixed0", 0, 0, {}]]], "config": {"kernel_initializer": {"config": {"scale": 1.0, "seed": null, "distribution": "uniform", "mode": "fan_avg"}, "class_name": "VarianceScaling"}, "bias_regularizer": null, "data_format": "channels_last", "strides": [1, 1], "bias_constraint": null, "filters": 64, "trainable": true, "name": "conv2d_16", "padding": "same", "bias_initializer": {"config": {}, "class_name": "Zeros"}, "activation": "linear", "activity_regularizer": null, "dilation_rate": [1, 1], "kernel_constraint": null, "use_bias": false, "kernel_regularizer": null, "kernel_size": [1, 1]}, "name": "conv2d_16", "class_name": "Conv2D"}, {"inbound_nodes": [[["conv2d_16", 0, 0, {}]]], "config": {"beta_constraint": null, "beta_initializer": {"config": {}, "class_name": "Zeros"}, "epsilon": 0.001, "axis": 3, "moving_mean_initializer": {"config": {}, "class_name": "Zeros"}, "moving_variance_initializer": {"config": {}, "class_name": "Ones"}, "trainable": true, "name": "batch_normalization_16", "scale": false, "center": true, "beta_regularizer": null, "gamma_constraint": null, "momentum": 0.99, "gamma_regularizer": null, "gamma_initializer": {"config": {}, "class_name": "Ones"}}, "name": "batch_normalization_16", "class_name": "BatchNormalization"}, {"inbound_nodes": [[["batch_normalization_16", 0, 0, {}]]], "config": {"activation": "relu", "trainable": true, "name": "activation_16"}, "name": "activation_16", "class_name": "Activation"}, {"inbound_nodes": [[["mixed0", 0, 0, {}]]], "config": {"kernel_initializer": {"config": {"scale": 1.0, "seed": null, "distribution": "uniform", "mode": "fan_avg"}, "class_name": "VarianceScaling"}, "bias_regularizer": null, "data_format": "channels_last", "strides": [1, 1], "bias_constraint": null, "filters": 48, "trainable": true, "name": "conv2d_14", "padding": "same", "bias_initializer": {"config": {}, "class_name": "Zeros"}, "activation": "linear", "activity_regularizer": null, "dilation_rate": [1, 1], "kernel_constraint": null, "use_bias": false, "kernel_regularizer": null, "kernel_size": [1, 1]}, "name": "conv2d_14", "class_name": "Conv2D"}, {"inbound_nodes": [[["activation_16", 0, 0, {}]]], "config": {"kernel_initializer": {"config": {"scale": 1.0, "seed": null, "distribution": "uniform", "mode": "fan_avg"}, "class_name": "VarianceScaling"}, "bias_regularizer": null, "data_format": "channels_last", "strides": [1, 1], "bias_constraint": null, "filters": 96, "trainable": true, "name": "conv2d_17", "padding": "same", "bias_initializer": {"config": {}, "class_name": "Zeros"}, "activation": "linear", "activity_regularizer": null, "dilation_rate": [1, 1], "kernel_constraint": null, "use_bias": false, "kernel_regularizer": null, "kernel_size": [3, 3]}, "name": "conv2d_17", "class_name": "Conv2D"}, {"inbound_nodes": [[["conv2d_14", 0, 0, {}]]], "config": {"beta_constraint": null, "beta_initializer": {"config": {}, "class_name": "Zeros"}, "epsilon": 0.001, "axis": 3, "moving_mean_initializer": {"config": {}, "class_name": "Zeros"}, "moving_variance_initializer": {"config": {}, "class_name": "Ones"}, "trainable": true, "name": "batch_normalization_14", "scale": false, "center": true, "beta_regularizer": null, "gamma_constraint": null, "momentum": 0.99, "gamma_regularizer": null, "gamma_initializer": {"config": {}, "class_name": "Ones"}}, "name": "batch_normalization_14", "class_name": "BatchNormalization"}, {"inbound_nodes": [[["conv2d_17", 0, 0, {}]]], "config": {"beta_constraint": null, "beta_initializer": {"config": {}, "class_name": "Zeros"}, "epsilon": 0.001, "axis": 3, "moving_mean_initializer": {"config": {}, "class_name": "Zeros"}, "moving_variance_initializer": {"config": {}, "class_name": "Ones"}, "trainable": true, "name": "batch_normalization_17", "scale": false, "center": true, "beta_regularizer": null, "gamma_constraint": null, "momentum": 0.99, "gamma_regularizer": null, "gamma_initializer": {"config": {}, "class_name": "Ones"}}, "name": "batch_normalization_17", "class_name": "BatchNormalization"}, {"inbound_nodes": [[["batch_normalization_14", 0, 0, {}]]], "config": {"activation": "relu", "trainable": true, "name": "activation_14"}, "name": "activation_14", "class_name": "Activation"}, {"inbound_nodes": [[["batch_normalization_17", 0, 0, {}]]], "config": {"activation": "relu", "trainable": true, "name": "activation_17"}, "name": "activation_17", "class_name": "Activation"}, {"inbound_nodes": [[["mixed0", 0, 0, {}]]], "config": {"pool_size": [3, 3], "data_format": "channels_last", "strides": [1, 1], "padding": "same", "trainable": true, "name": "average_pooling2d_2"}, "name": "average_pooling2d_2", "class_name": "AveragePooling2D"}, {"inbound_nodes": [[["mixed0", 0, 0, {}]]], "config": {"kernel_initializer": {"config": {"scale": 1.0, "seed": null, "distribution": "uniform", "mode": "fan_avg"}, "class_name": "VarianceScaling"}, "bias_regularizer": null, "data_format": "channels_last", "strides": [1, 1], "bias_constraint": null, "filters": 64, "trainable": true, "name": "conv2d_13", "padding": "same", "bias_initializer": {"config": {}, "class_name": "Zeros"}, "activation": "linear", "activity_regularizer": null, "dilation_rate": [1, 1], "kernel_constraint": null, "use_bias": false, "kernel_regularizer": null, "kernel_size": [1, 1]}, "name": "conv2d_13", "class_name": "Conv2D"}, {"inbound_nodes": [[["activation_14", 0, 0, {}]]], "config": {"kernel_initializer": {"config": {"scale": 1.0, "seed": null, "distribution": "uniform", "mode": "fan_avg"}, "class_name": "VarianceScaling"}, "bias_regularizer": null, "data_format": "channels_last", "strides": [1, 1], "bias_constraint": null, "filters": 64, "trainable": true, "name": "conv2d_15", "padding": "same", "bias_initializer": {"config": {}, "class_name": "Zeros"}, "activation": "linear", "activity_regularizer": null, "dilation_rate": [1, 1], "kernel_constraint": null, "use_bias": false, "kernel_regularizer": null, "kernel_size": [5, 5]}, "name": "conv2d_15", "class_name": "Conv2D"}, {"inbound_nodes": [[["activation_17", 0, 0, {}]]], "config": {"kernel_initializer": {"config": {"scale": 1.0, "seed": null, "distribution": "uniform", "mode": "fan_avg"}, "class_name": "VarianceScaling"}, "bias_regularizer": null, "data_format": "channels_last", "strides": [1, 1], "bias_constraint": null, "filters": 96, "trainable": true, "name": "conv2d_18", "padding": "same", "bias_initializer": {"config": {}, "class_name": "Zeros"}, "activation": "linear", "activity_regularizer": null, "dilation_rate": [1, 1], "kernel_constraint": null, "use_bias": false, "kernel_regularizer": null, "kernel_size": [3, 3]}, "name": "conv2d_18", "class_name": "Conv2D"}, {"inbound_nodes": [[["average_pooling2d_2", 0, 0, {}]]], "config": {"kernel_initializer": {"config": {"scale": 1.0, "seed": null, "distribution": "uniform", "mode": "fan_avg"}, "class_name": "VarianceScaling"}, "bias_regularizer": null, "data_format": "channels_last", "strides": [1, 1], "bias_constraint": null, "filters": 64, "trainable": true, "name": "conv2d_19", "padding": "same", "bias_initializer": {"config": {}, "class_name": "Zeros"}, "activation": "linear", "activity_regularizer": null, "dilation_rate": [1, 1], "kernel_constraint": null, "use_bias": false, "kernel_regularizer": null, "kernel_size": [1, 1]}, "name": "conv2d_19", "class_name": "Conv2D"}, {"inbound_nodes": [[["conv2d_13", 0, 0, {}]]], "config": {"beta_constraint": null, "beta_initializer": {"config": {}, "class_name": "Zeros"}, "epsilon": 0.001, "axis": 3, "moving_mean_initializer": {"config": {}, "class_name": "Zeros"}, "moving_variance_initializer": {"config": {}, "class_name": "Ones"}, "trainable": true, "name": "batch_normalization_13", "scale": false, "center": true, "beta_regularizer": null, "gamma_constraint": null, "momentum": 0.99, "gamma_regularizer": null, "gamma_initializer": {"config": {}, "class_name": "Ones"}}, "name": "batch_normalization_13", "class_name": "BatchNormalization"}, {"inbound_nodes": [[["conv2d_15", 0, 0, {}]]], "config": {"beta_constraint": null, "beta_initializer": {"config": {}, "class_name": "Zeros"}, "epsilon": 0.001, "axis": 3, "moving_mean_initializer": {"config": {}, "class_name": "Zeros"}, "moving_variance_initializer": {"config": {}, "class_name": "Ones"}, "trainable": true, "name": "batch_normalization_15", "scale": false, "center": true, "beta_regularizer": null, "gamma_constraint": null, "momentum": 0.99, "gamma_regularizer": null, "gamma_initializer": {"config": {}, "class_name": "Ones"}}, "name": "batch_normalization_15", "class_name": "BatchNormalization"}, {"inbound_nodes": [[["conv2d_18", 0, 0, {}]]], "config": {"beta_constraint": null, "beta_initializer": {"config": {}, "class_name": "Zeros"}, "epsilon": 0.001, "axis": 3, "moving_mean_initializer": {"config": {}, "class_name": "Zeros"}, "moving_variance_initializer": {"config": {}, "class_name": "Ones"}, "trainable": true, "name": "batch_normalization_18", "scale": false, "center": true, "beta_regularizer": null, "gamma_constraint": null, "momentum": 0.99, "gamma_regularizer": null, "gamma_initializer": {"config": {}, "class_name": "Ones"}}, "name": "batch_normalization_18", "class_name": "BatchNormalization"}, {"inbound_nodes": [[["conv2d_19", 0, 0, {}]]], "config": {"beta_constraint": null, "beta_initializer": {"config": {}, "class_name": "Zeros"}, "epsilon": 0.001, "axis": 3, "moving_mean_initializer": {"config": {}, "class_name": "Zeros"}, "moving_variance_initializer": {"config": {}, "class_name": "Ones"}, "trainable": true, "name": "batch_normalization_19", "scale": false, "center": true, "beta_regularizer": null, "gamma_constraint": null, "momentum": 0.99, "gamma_regularizer": null, "gamma_initializer": {"config": {}, "class_name": "Ones"}}, "name": "batch_normalization_19", "class_name": "BatchNormalization"}, {"inbound_nodes": [[["batch_normalization_13", 0, 0, {}]]], "config": {"activation": "relu", "trainable": true, "name": "activation_13"}, "name": "activation_13", "class_name": "Activation"}, {"inbound_nodes": [[["batch_normalization_15", 0, 0, {}]]], "config": {"activation": "relu", "trainable": true, "name": "activation_15"}, "name": "activation_15", "class_name": "Activation"}, {"inbound_nodes": [[["batch_normalization_18", 0, 0, {}]]], "config": {"activation": "relu", "trainable": true, "name": "activation_18"}, "name": "activation_18", "class_name": "Activation"}, {"inbound_nodes": [[["batch_normalization_19", 0, 0, {}]]], "config": {"activation": "relu", "trainable": true, "name": "activation_19"}, "name": "activation_19", "class_name": "Activation"}, {"inbound_nodes": [[["activation_13", 0, 0, {}], ["activation_15", 0, 0, {}], ["activation_18", 0, 0, {}], ["activation_19", 0, 0, {}]]], "config": {"trainable": true, "name": "mixed1", "axis": 3}, "name": "mixed1", "class_name": "Concatenate"}, {"inbound_nodes": [[["mixed1", 0, 0, {}]]], "config": {"kernel_initializer": {"config": {"scale": 1.0, "seed": null, "distribution": "uniform", "mode": "fan_avg"}, "class_name": "VarianceScaling"}, "bias_regularizer": null, "data_format": "channels_last", "strides": [1, 1], "bias_constraint": null, "filters": 64, "trainable": true, "name": "conv2d_23", "padding": "same", "bias_initializer": {"config": {}, "class_name": "Zeros"}, "activation": "linear", "activity_regularizer": null, "dilation_rate": [1, 1], "kernel_constraint": null, "use_bias": false, "kernel_regularizer": null, "kernel_size": [1, 1]}, "name": "conv2d_23", "class_name": "Conv2D"}, {"inbound_nodes": [[["conv2d_23", 0, 0, {}]]], "config": {"beta_constraint": null, "beta_initializer": {"config": {}, "class_name": "Zeros"}, "epsilon": 0.001, "axis": 3, "moving_mean_initializer": {"config": {}, "class_name": "Zeros"}, "moving_variance_initializer": {"config": {}, "class_name": "Ones"}, "trainable": true, "name": "batch_normalization_23", "scale": false, "center": true, "beta_regularizer": null, "gamma_constraint": null, "momentum": 0.99, "gamma_regularizer": null, "gamma_initializer": {"config": {}, "class_name": "Ones"}}, "name": "batch_normalization_23", "class_name": "BatchNormalization"}, {"inbound_nodes": [[["batch_normalization_23", 0, 0, {}]]], "config": {"activation": "relu", "trainable": true, "name": "activation_23"}, "name": "activation_23", "class_name": "Activation"}, {"inbound_nodes": [[["mixed1", 0, 0, {}]]], "config": {"kernel_initializer": {"config": {"scale": 1.0, "seed": null, "distribution": "uniform", "mode": "fan_avg"}, "class_name": "VarianceScaling"}, "bias_regularizer": null, "data_format": "channels_last", "strides": [1, 1], "bias_constraint": null, "filters": 48, "trainable": true, "name": "conv2d_21", "padding": "same", "bias_initializer": {"config": {}, "class_name": "Zeros"}, "activation": "linear", "activity_regularizer": null, "dilation_rate": [1, 1], "kernel_constraint": null, "use_bias": false, "kernel_regularizer": null, "kernel_size": [1, 1]}, "name": "conv2d_21", "class_name": "Conv2D"}, {"inbound_nodes": [[["activation_23", 0, 0, {}]]], "config": {"kernel_initializer": {"config": {"scale": 1.0, "seed": null, "distribution": "uniform", "mode": "fan_avg"}, "class_name": "VarianceScaling"}, "bias_regularizer": null, "data_format": "channels_last", "strides": [1, 1], "bias_constraint": null, "filters": 96, "trainable": true, "name": "conv2d_24", "padding": "same", "bias_initializer": {"config": {}, "class_name": "Zeros"}, "activation": "linear", "activity_regularizer": null, "dilation_rate": [1, 1], "kernel_constraint": null, "use_bias": false, "kernel_regularizer": null, "kernel_size": [3, 3]}, "name": "conv2d_24", "class_name": "Conv2D"}, {"inbound_nodes": [[["conv2d_21", 0, 0, {}]]], "config": {"beta_constraint": null, "beta_initializer": {"config": {}, "class_name": "Zeros"}, "epsilon": 0.001, "axis": 3, "moving_mean_initializer": {"config": {}, "class_name": "Zeros"}, "moving_variance_initializer": {"config": {}, "class_name": "Ones"}, "trainable": true, "name": "batch_normalization_21", "scale": false, "center": true, "beta_regularizer": null, "gamma_constraint": null, "momentum": 0.99, "gamma_regularizer": null, "gamma_initializer": {"config": {}, "class_name": "Ones"}}, "name": "batch_normalization_21", "class_name": "BatchNormalization"}, {"inbound_nodes": [[["conv2d_24", 0, 0, {}]]], "config": {"beta_constraint": null, "beta_initializer": {"config": {}, "class_name": "Zeros"}, "epsilon": 0.001, "axis": 3, "moving_mean_initializer": {"config": {}, "class_name": "Zeros"}, "moving_variance_initializer": {"config": {}, "class_name": "Ones"}, "trainable": true, "name": "batch_normalization_24", "scale": false, "center": true, "beta_regularizer": null, "gamma_constraint": null, "momentum": 0.99, "gamma_regularizer": null, "gamma_initializer": {"config": {}, "class_name": "Ones"}}, "name": "batch_normalization_24", "class_name": "BatchNormalization"}, {"inbound_nodes": [[["batch_normalization_21", 0, 0, {}]]], "config": {"activation": "relu", "trainable": true, "name": "activation_21"}, "name": "activation_21", "class_name": "Activation"}, {"inbound_nodes": [[["batch_normalization_24", 0, 0, {}]]], "config": {"activation": "relu", "trainable": true, "name": "activation_24"}, "name": "activation_24", "class_name": "Activation"}, {"inbound_nodes": [[["mixed1", 0, 0, {}]]], "config": {"pool_size": [3, 3], "data_format": "channels_last", "strides": [1, 1], "padding": "same", "trainable": true, "name": "average_pooling2d_3"}, "name": "average_pooling2d_3", "class_name": "AveragePooling2D"}, {"inbound_nodes": [[["mixed1", 0, 0, {}]]], "config": {"kernel_initializer": {"config": {"scale": 1.0, "seed": null, "distribution": "uniform", "mode": "fan_avg"}, "class_name": "VarianceScaling"}, "bias_regularizer": null, "data_format": "channels_last", "strides": [1, 1], "bias_constraint": null, "filters": 64, "trainable": true, "name": "conv2d_20", "padding": "same", "bias_initializer": {"config": {}, "class_name": "Zeros"}, "activation": "linear", "activity_regularizer": null, "dilation_rate": [1, 1], "kernel_constraint": null, "use_bias": false, "kernel_regularizer": null, "kernel_size": [1, 1]}, "name": "conv2d_20", "class_name": "Conv2D"}, {"inbound_nodes": [[["activation_21", 0, 0, {}]]], "config": {"kernel_initializer": {"config": {"scale": 1.0, "seed": null, "distribution": "uniform", "mode": "fan_avg"}, "class_name": "VarianceScaling"}, "bias_regularizer": null, "data_format": "channels_last", "strides": [1, 1], "bias_constraint": null, "filters": 64, "trainable": true, "name": "conv2d_22", "padding": "same", "bias_initializer": {"config": {}, "class_name": "Zeros"}, "activation": "linear", "activity_regularizer": null, "dilation_rate": [1, 1], "kernel_constraint": null, "use_bias": false, "kernel_regularizer": null, "kernel_size": [5, 5]}, "name": "conv2d_22", "class_name": "Conv2D"}, {"inbound_nodes": [[["activation_24", 0, 0, {}]]], "config": {"kernel_initializer": {"config": {"scale": 1.0, "seed": null, "distribution": "uniform", "mode": "fan_avg"}, "class_name": "VarianceScaling"}, "bias_regularizer": null, "data_format": "channels_last", "strides": [1, 1], "bias_constraint": null, "filters": 96, "trainable": true, "name": "conv2d_25", "padding": "same", "bias_initializer": {"config": {}, "class_name": "Zeros"}, "activation": "linear", "activity_regularizer": null, "dilation_rate": [1, 1], "kernel_constraint": null, "use_bias": false, "kernel_regularizer": null, "kernel_size": [3, 3]}, "name": "conv2d_25", "class_name": "Conv2D"}, {"inbound_nodes": [[["average_pooling2d_3", 0, 0, {}]]], "config": {"kernel_initializer": {"config": {"scale": 1.0, "seed": null, "distribution": "uniform", "mode": "fan_avg"}, "class_name": "VarianceScaling"}, "bias_regularizer": null, "data_format": "channels_last", "strides": [1, 1], "bias_constraint": null, "filters": 64, "trainable": true, "name": "conv2d_26", "padding": "same", "bias_initializer": {"config": {}, "class_name": "Zeros"}, "activation": "linear", "activity_regularizer": null, "dilation_rate": [1, 1], "kernel_constraint": null, "use_bias": false, "kernel_regularizer": null, "kernel_size": [1, 1]}, "name": "conv2d_26", "class_name": "Conv2D"}, {"inbound_nodes": [[["conv2d_20", 0, 0, {}]]], "config": {"beta_constraint": null, "beta_initializer": {"config": {}, "class_name": "Zeros"}, "epsilon": 0.001, "axis": 3, "moving_mean_initializer": {"config": {}, "class_name": "Zeros"}, "moving_variance_initializer": {"config": {}, "class_name": "Ones"}, "trainable": true, "name": "batch_normalization_20", "scale": false, "center": true, "beta_regularizer": null, "gamma_constraint": null, "momentum": 0.99, "gamma_regularizer": null, "gamma_initializer": {"config": {}, "class_name": "Ones"}}, "name": "batch_normalization_20", "class_name": "BatchNormalization"}, {"inbound_nodes": [[["conv2d_22", 0, 0, {}]]], "config": {"beta_constraint": null, "beta_initializer": {"config": {}, "class_name": "Zeros"}, "epsilon": 0.001, "axis": 3, "moving_mean_initializer": {"config": {}, "class_name": "Zeros"}, "moving_variance_initializer": {"config": {}, "class_name": "Ones"}, "trainable": true, "name": "batch_normalization_22", "scale": false, "center": true, "beta_regularizer": null, "gamma_constraint": null, "momentum": 0.99, "gamma_regularizer": null, "gamma_initializer": {"config": {}, "class_name": "Ones"}}, "name": "batch_normalization_22", "class_name": "BatchNormalization"}, {"inbound_nodes": [[["conv2d_25", 0, 0, {}]]], "config": {"beta_constraint": null, "beta_initializer": {"config": {}, "class_name": "Zeros"}, "epsilon": 0.001, "axis": 3, "moving_mean_initializer": {"config": {}, "class_name": "Zeros"}, "moving_variance_initializer": {"config": {}, "class_name": "Ones"}, "trainable": true, "name": "batch_normalization_25", "scale": false, "center": true, "beta_regularizer": null, "gamma_constraint": null, "momentum": 0.99, "gamma_regularizer": null, "gamma_initializer": {"config": {}, "class_name": "Ones"}}, "name": "batch_normalization_25", "class_name": "BatchNormalization"}, {"inbound_nodes": [[["conv2d_26", 0, 0, {}]]], "config": {"beta_constraint": null, "beta_initializer": {"config": {}, "class_name": "Zeros"}, "epsilon": 0.001, "axis": 3, "moving_mean_initializer": {"config": {}, "class_name": "Zeros"}, "moving_variance_initializer": {"config": {}, "class_name": "Ones"}, "trainable": true, "name": "batch_normalization_26", "scale": false, "center": true, "beta_regularizer": null, "gamma_constraint": null, "momentum": 0.99, "gamma_regularizer": null, "gamma_initializer": {"config": {}, "class_name": "Ones"}}, "name": "batch_normalization_26", "class_name": "BatchNormalization"}, {"inbound_nodes": [[["batch_normalization_20", 0, 0, {}]]], "config": {"activation": "relu", "trainable": true, "name": "activation_20"}, "name": "activation_20", "class_name": "Activation"}, {"inbound_nodes": [[["batch_normalization_22", 0, 0, {}]]], "config": {"activation": "relu", "trainable": true, "name": "activation_22"}, "name": "activation_22", "class_name": "Activation"}, {"inbound_nodes": [[["batch_normalization_25", 0, 0, {}]]], "config": {"activation": "relu", "trainable": true, "name": "activation_25"}, "name": "activation_25", "class_name": "Activation"}, {"inbound_nodes": [[["batch_normalization_26", 0, 0, {}]]], "config": {"activation": "relu", "trainable": true, "name": "activation_26"}, "name": "activation_26", "class_name": "Activation"}, {"inbound_nodes": [[["activation_20", 0, 0, {}], ["activation_22", 0, 0, {}], ["activation_25", 0, 0, {}], ["activation_26", 0, 0, {}]]], "config": {"trainable": true, "name": "mixed2", "axis": 3}, "name": "mixed2", "class_name": "Concatenate"}, {"inbound_nodes": [[["mixed2", 0, 0, {}]]], "config": {"kernel_initializer": {"config": {"scale": 1.0, "seed": null, "distribution": "uniform", "mode": "fan_avg"}, "class_name": "VarianceScaling"}, "bias_regularizer": null, "data_format": "channels_last", "strides": [1, 1], "bias_constraint": null, "filters": 64, "trainable": true, "name": "conv2d_28", "padding": "same", "bias_initializer": {"config": {}, "class_name": "Zeros"}, "activation": "linear", "activity_regularizer": null, "dilation_rate": [1, 1], "kernel_constraint": null, "use_bias": false, "kernel_regularizer": null, "kernel_size": [1, 1]}, "name": "conv2d_28", "class_name": "Conv2D"}, {"inbound_nodes": [[["conv2d_28", 0, 0, {}]]], "config": {"beta_constraint": null, "beta_initializer": {"config": {}, "class_name": "Zeros"}, "epsilon": 0.001, "axis": 3, "moving_mean_initializer": {"config": {}, "class_name": "Zeros"}, "moving_variance_initializer": {"config": {}, "class_name": "Ones"}, "trainable": true, "name": "batch_normalization_28", "scale": false, "center": true, "beta_regularizer": null, "gamma_constraint": null, "momentum": 0.99, "gamma_regularizer": null, "gamma_initializer": {"config": {}, "class_name": "Ones"}}, "name": "batch_normalization_28", "class_name": "BatchNormalization"}, {"inbound_nodes": [[["batch_normalization_28", 0, 0, {}]]], "config": {"activation": "relu", "trainable": true, "name": "activation_28"}, "name": "activation_28", "class_name": "Activation"}, {"inbound_nodes": [[["activation_28", 0, 0, {}]]], "config": {"kernel_initializer": {"config": {"scale": 1.0, "seed": null, "distribution": "uniform", "mode": "fan_avg"}, "class_name": "VarianceScaling"}, "bias_regularizer": null, "data_format": "channels_last", "strides": [1, 1], "bias_constraint": null, "filters": 96, "trainable": true, "name": "conv2d_29", "padding": "same", "bias_initializer": {"config": {}, "class_name": "Zeros"}, "activation": "linear", "activity_regularizer": null, "dilation_rate": [1, 1], "kernel_constraint": null, "use_bias": false, "kernel_regularizer": null, "kernel_size": [3, 3]}, "name": "conv2d_29", "class_name": "Conv2D"}, {"inbound_nodes": [[["conv2d_29", 0, 0, {}]]], "config": {"beta_constraint": null, "beta_initializer": {"config": {}, "class_name": "Zeros"}, "epsilon": 0.001, "axis": 3, "moving_mean_initializer": {"config": {}, "class_name": "Zeros"}, "moving_variance_initializer": {"config": {}, "class_name": "Ones"}, "trainable": true, "name": "batch_normalization_29", "scale": false, "center": true, "beta_regularizer": null, "gamma_constraint": null, "momentum": 0.99, "gamma_regularizer": null, "gamma_initializer": {"config": {}, "class_name": "Ones"}}, "name": "batch_normalization_29", "class_name": "BatchNormalization"}, {"inbound_nodes": [[["batch_normalization_29", 0, 0, {}]]], "config": {"activation": "relu", "trainable": true, "name": "activation_29"}, "name": "activation_29", "class_name": "Activation"}, {"inbound_nodes": [[["mixed2", 0, 0, {}]]], "config": {"kernel_initializer": {"config": {"scale": 1.0, "seed": null, "distribution": "uniform", "mode": "fan_avg"}, "class_name": "VarianceScaling"}, "bias_regularizer": null, "data_format": "channels_last", "strides": [2, 2], "bias_constraint": null, "filters": 384, "trainable": true, "name": "conv2d_27", "padding": "valid", "bias_initializer": {"config": {}, "class_name": "Zeros"}, "activation": "linear", "activity_regularizer": null, "dilation_rate": [1, 1], "kernel_constraint": null, "use_bias": false, "kernel_regularizer": null, "kernel_size": [3, 3]}, "name": "conv2d_27", "class_name": "Conv2D"}, {"inbound_nodes": [[["activation_29", 0, 0, {}]]], "config": {"kernel_initializer": {"config": {"scale": 1.0, "seed": null, "distribution": "uniform", "mode": "fan_avg"}, "class_name": "VarianceScaling"}, "bias_regularizer": null, "data_format": "channels_last", "strides": [2, 2], "bias_constraint": null, "filters": 96, "trainable": true, "name": "conv2d_30", "padding": "valid", "bias_initializer": {"config": {}, "class_name": "Zeros"}, "activation": "linear", "activity_regularizer": null, "dilation_rate": [1, 1], "kernel_constraint": null, "use_bias": false, "kernel_regularizer": null, "kernel_size": [3, 3]}, "name": "conv2d_30", "class_name": "Conv2D"}, {"inbound_nodes": [[["conv2d_27", 0, 0, {}]]], "config": {"beta_constraint": null, "beta_initializer": {"config": {}, "class_name": "Zeros"}, "epsilon": 0.001, "axis": 3, "moving_mean_initializer": {"config": {}, "class_name": "Zeros"}, "moving_variance_initializer": {"config": {}, "class_name": "Ones"}, "trainable": true, "name": "batch_normalization_27", "scale": false, "center": true, "beta_regularizer": null, "gamma_constraint": null, "momentum": 0.99, "gamma_regularizer": null, "gamma_initializer": {"config": {}, "class_name": "Ones"}}, "name": "batch_normalization_27", "class_name": "BatchNormalization"}, {"inbound_nodes": [[["conv2d_30", 0, 0, {}]]], "config": {"beta_constraint": null, "beta_initializer": {"config": {}, "class_name": "Zeros"}, "epsilon": 0.001, "axis": 3, "moving_mean_initializer": {"config": {}, "class_name": "Zeros"}, "moving_variance_initializer": {"config": {}, "class_name": "Ones"}, "trainable": true, "name": "batch_normalization_30", "scale": false, "center": true, "beta_regularizer": null, "gamma_constraint": null, "momentum": 0.99, "gamma_regularizer": null, "gamma_initializer": {"config": {}, "class_name": "Ones"}}, "name": "batch_normalization_30", "class_name": "BatchNormalization"}, {"inbound_nodes": [[["batch_normalization_27", 0, 0, {}]]], "config": {"activation": "relu", "trainable": true, "name": "activation_27"}, "name": "activation_27", "class_name": "Activation"}, {"inbound_nodes": [[["batch_normalization_30", 0, 0, {}]]], "config": {"activation": "relu", "trainable": true, "name": "activation_30"}, "name": "activation_30", "class_name": "Activation"}, {"inbound_nodes": [[["mixed2", 0, 0, {}]]], "config": {"pool_size": [3, 3], "data_format": "channels_last", "strides": [2, 2], "padding": "valid", "trainable": true, "name": "max_pooling2d_3"}, "name": "max_pooling2d_3", "class_name": "MaxPooling2D"}, {"inbound_nodes": [[["activation_27", 0, 0, {}], ["activation_30", 0, 0, {}], ["max_pooling2d_3", 0, 0, {}]]], "config": {"trainable": true, "name": "mixed3", "axis": 3}, "name": "mixed3", "class_name": "Concatenate"}, {"inbound_nodes": [[["mixed3", 0, 0, {}]]], "config": {"kernel_initializer": {"config": {"scale": 1.0, "seed": null, "distribution": "uniform", "mode": "fan_avg"}, "class_name": "VarianceScaling"}, "bias_regularizer": null, "data_format": "channels_last", "strides": [1, 1], "bias_constraint": null, "filters": 128, "trainable": true, "name": "conv2d_35", "padding": "same", "bias_initializer": {"config": {}, "class_name": "Zeros"}, "activation": "linear", "activity_regularizer": null, "dilation_rate": [1, 1], "kernel_constraint": null, "use_bias": false, "kernel_regularizer": null, "kernel_size": [1, 1]}, "name": "conv2d_35", "class_name": "Conv2D"}, {"inbound_nodes": [[["conv2d_35", 0, 0, {}]]], "config": {"beta_constraint": null, "beta_initializer": {"config": {}, "class_name": "Zeros"}, "epsilon": 0.001, "axis": 3, "moving_mean_initializer": {"config": {}, "class_name": "Zeros"}, "moving_variance_initializer": {"config": {}, "class_name": "Ones"}, "trainable": true, "name": "batch_normalization_35", "scale": false, "center": true, "beta_regularizer": null, "gamma_constraint": null, "momentum": 0.99, "gamma_regularizer": null, "gamma_initializer": {"config": {}, "class_name": "Ones"}}, "name": "batch_normalization_35", "class_name": "BatchNormalization"}, {"inbound_nodes": [[["batch_normalization_35", 0, 0, {}]]], "config": {"activation": "relu", "trainable": true, "name": "activation_35"}, "name": "activation_35", "class_name": "Activation"}, {"inbound_nodes": [[["activation_35", 0, 0, {}]]], "config": {"kernel_initializer": {"config": {"scale": 1.0, "seed": null, "distribution": "uniform", "mode": "fan_avg"}, "class_name": "VarianceScaling"}, "bias_regularizer": null, "data_format": "channels_last", "strides": [1, 1], "bias_constraint": null, "filters": 128, "trainable": true, "name": "conv2d_36", "padding": "same", "bias_initializer": {"config": {}, "class_name": "Zeros"}, "activation": "linear", "activity_regularizer": null, "dilation_rate": [1, 1], "kernel_constraint": null, "use_bias": false, "kernel_regularizer": null, "kernel_size": [7, 1]}, "name": "conv2d_36", "class_name": "Conv2D"}, {"inbound_nodes": [[["conv2d_36", 0, 0, {}]]], "config": {"beta_constraint": null, "beta_initializer": {"config": {}, "class_name": "Zeros"}, "epsilon": 0.001, "axis": 3, "moving_mean_initializer": {"config": {}, "class_name": "Zeros"}, "moving_variance_initializer": {"config": {}, "class_name": "Ones"}, "trainable": true, "name": "batch_normalization_36", "scale": false, "center": true, "beta_regularizer": null, "gamma_constraint": null, "momentum": 0.99, "gamma_regularizer": null, "gamma_initializer": {"config": {}, "class_name": "Ones"}}, "name": "batch_normalization_36", "class_name": "BatchNormalization"}, {"inbound_nodes": [[["batch_normalization_36", 0, 0, {}]]], "config": {"activation": "relu", "trainable": true, "name": "activation_36"}, "name": "activation_36", "class_name": "Activation"}, {"inbound_nodes": [[["mixed3", 0, 0, {}]]], "config": {"kernel_initializer": {"config": {"scale": 1.0, "seed": null, "distribution": "uniform", "mode": "fan_avg"}, "class_name": "VarianceScaling"}, "bias_regularizer": null, "data_format": "channels_last", "strides": [1, 1], "bias_constraint": null, "filters": 128, "trainable": true, "name": "conv2d_32", "padding": "same", "bias_initializer": {"config": {}, "class_name": "Zeros"}, "activation": "linear", "activity_regularizer": null, "dilation_rate": [1, 1], "kernel_constraint": null, "use_bias": false, "kernel_regularizer": null, "kernel_size": [1, 1]}, "name": "conv2d_32", "class_name": "Conv2D"}, {"inbound_nodes": [[["activation_36", 0, 0, {}]]], "config": {"kernel_initializer": {"config": {"scale": 1.0, "seed": null, "distribution": "uniform", "mode": "fan_avg"}, "class_name": "VarianceScaling"}, "bias_regularizer": null, "data_format": "channels_last", "strides": [1, 1], "bias_constraint": null, "filters": 128, "trainable": true, "name": "conv2d_37", "padding": "same", "bias_initializer": {"config": {}, "class_name": "Zeros"}, "activation": "linear", "activity_regularizer": null, "dilation_rate": [1, 1], "kernel_constraint": null, "use_bias": false, "kernel_regularizer": null, "kernel_size": [1, 7]}, "name": "conv2d_37", "class_name": "Conv2D"}, {"inbound_nodes": [[["conv2d_32", 0, 0, {}]]], "config": {"beta_constraint": null, "beta_initializer": {"config": {}, "class_name": "Zeros"}, "epsilon": 0.001, "axis": 3, "moving_mean_initializer": {"config": {}, "class_name": "Zeros"}, "moving_variance_initializer": {"config": {}, "class_name": "Ones"}, "trainable": true, "name": "batch_normalization_32", "scale": false, "center": true, "beta_regularizer": null, "gamma_constraint": null, "momentum": 0.99, "gamma_regularizer": null, "gamma_initializer": {"config": {}, "class_name": "Ones"}}, "name": "batch_normalization_32", "class_name": "BatchNormalization"}, {"inbound_nodes": [[["conv2d_37", 0, 0, {}]]], "config": {"beta_constraint": null, "beta_initializer": {"config": {}, "class_name": "Zeros"}, "epsilon": 0.001, "axis": 3, "moving_mean_initializer": {"config": {}, "class_name": "Zeros"}, "moving_variance_initializer": {"config": {}, "class_name": "Ones"}, "trainable": true, "name": "batch_normalization_37", "scale": false, "center": true, "beta_regularizer": null, "gamma_constraint": null, "momentum": 0.99, "gamma_regularizer": null, "gamma_initializer": {"config": {}, "class_name": "Ones"}}, "name": "batch_normalization_37", "class_name": "BatchNormalization"}, {"inbound_nodes": [[["batch_normalization_32", 0, 0, {}]]], "config": {"activation": "relu", "trainable": true, "name": "activation_32"}, "name": "activation_32", "class_name": "Activation"}, {"inbound_nodes": [[["batch_normalization_37", 0, 0, {}]]], "config": {"activation": "relu", "trainable": true, "name": "activation_37"}, "name": "activation_37", "class_name": "Activation"}, {"inbound_nodes": [[["activation_32", 0, 0, {}]]], "config": {"kernel_initializer": {"config": {"scale": 1.0, "seed": null, "distribution": "uniform", "mode": "fan_avg"}, "class_name": "VarianceScaling"}, "bias_regularizer": null, "data_format": "channels_last", "strides": [1, 1], "bias_constraint": null, "filters": 128, "trainable": true, "name": "conv2d_33", "padding": "same", "bias_initializer": {"config": {}, "class_name": "Zeros"}, "activation": "linear", "activity_regularizer": null, "dilation_rate": [1, 1], "kernel_constraint": null, "use_bias": false, "kernel_regularizer": null, "kernel_size": [1, 7]}, "name": "conv2d_33", "class_name": "Conv2D"}, {"inbound_nodes": [[["activation_37", 0, 0, {}]]], "config": {"kernel_initializer": {"config": {"scale": 1.0, "seed": null, "distribution": "uniform", "mode": "fan_avg"}, "class_name": "VarianceScaling"}, "bias_regularizer": null, "data_format": "channels_last", "strides": [1, 1], "bias_constraint": null, "filters": 128, "trainable": true, "name": "conv2d_38", "padding": "same", "bias_initializer": {"config": {}, "class_name": "Zeros"}, "activation": "linear", "activity_regularizer": null, "dilation_rate": [1, 1], "kernel_constraint": null, "use_bias": false, "kernel_regularizer": null, "kernel_size": [7, 1]}, "name": "conv2d_38", "class_name": "Conv2D"}, {"inbound_nodes": [[["conv2d_33", 0, 0, {}]]], "config": {"beta_constraint": null, "beta_initializer": {"config": {}, "class_name": "Zeros"}, "epsilon": 0.001, "axis": 3, "moving_mean_initializer": {"config": {}, "class_name": "Zeros"}, "moving_variance_initializer": {"config": {}, "class_name": "Ones"}, "trainable": true, "name": "batch_normalization_33", "scale": false, "center": true, "beta_regularizer": null, "gamma_constraint": null, "momentum": 0.99, "gamma_regularizer": null, "gamma_initializer": {"config": {}, "class_name": "Ones"}}, "name": "batch_normalization_33", "class_name": "BatchNormalization"}, {"inbound_nodes": [[["conv2d_38", 0, 0, {}]]], "config": {"beta_constraint": null, "beta_initializer": {"config": {}, "class_name": "Zeros"}, "epsilon": 0.001, "axis": 3, "moving_mean_initializer": {"config": {}, "class_name": "Zeros"}, "moving_variance_initializer": {"config": {}, "class_name": "Ones"}, "trainable": true, "name": "batch_normalization_38", "scale": false, "center": true, "beta_regularizer": null, "gamma_constraint": null, "momentum": 0.99, "gamma_regularizer": null, "gamma_initializer": {"config": {}, "class_name": "Ones"}}, "name": "batch_normalization_38", "class_name": "BatchNormalization"}, {"inbound_nodes": [[["batch_normalization_33", 0, 0, {}]]], "config": {"activation": "relu", "trainable": true, "name": "activation_33"}, "name": "activation_33", "class_name": "Activation"}, {"inbound_nodes": [[["batch_normalization_38", 0, 0, {}]]], "config": {"activation": "relu", "trainable": true, "name": "activation_38"}, "name": "activation_38", "class_name": "Activation"}, {"inbound_nodes": [[["mixed3", 0, 0, {}]]], "config": {"pool_size": [3, 3], "data_format": "channels_last", "strides": [1, 1], "padding": "same", "trainable": true, "name": "average_pooling2d_4"}, "name": "average_pooling2d_4", "class_name": "AveragePooling2D"}, {"inbound_nodes": [[["mixed3", 0, 0, {}]]], "config": {"kernel_initializer": {"config": {"scale": 1.0, "seed": null, "distribution": "uniform", "mode": "fan_avg"}, "class_name": "VarianceScaling"}, "bias_regularizer": null, "data_format": "channels_last", "strides": [1, 1], "bias_constraint": null, "filters": 192, "trainable": true, "name": "conv2d_31", "padding": "same", "bias_initializer": {"config": {}, "class_name": "Zeros"}, "activation": "linear", "activity_regularizer": null, "dilation_rate": [1, 1], "kernel_constraint": null, "use_bias": false, "kernel_regularizer": null, "kernel_size": [1, 1]}, "name": "conv2d_31", "class_name": "Conv2D"}, {"inbound_nodes": [[["activation_33", 0, 0, {}]]], "config": {"kernel_initializer": {"config": {"scale": 1.0, "seed": null, "distribution": "uniform", "mode": "fan_avg"}, "class_name": "VarianceScaling"}, "bias_regularizer": null, "data_format": "channels_last", "strides": [1, 1], "bias_constraint": null, "filters": 192, "trainable": true, "name": "conv2d_34", "padding": "same", "bias_initializer": {"config": {}, "class_name": "Zeros"}, "activation": "linear", "activity_regularizer": null, "dilation_rate": [1, 1], "kernel_constraint": null, "use_bias": false, "kernel_regularizer": null, "kernel_size": [7, 1]}, "name": "conv2d_34", "class_name": "Conv2D"}, {"inbound_nodes": [[["activation_38", 0, 0, {}]]], "config": {"kernel_initializer": {"config": {"scale": 1.0, "seed": null, "distribution": "uniform", "mode": "fan_avg"}, "class_name": "VarianceScaling"}, "bias_regularizer": null, "data_format": "channels_last", "strides": [1, 1], "bias_constraint": null, "filters": 192, "trainable": true, "name": "conv2d_39", "padding": "same", "bias_initializer": {"config": {}, "class_name": "Zeros"}, "activation": "linear", "activity_regularizer": null, "dilation_rate": [1, 1], "kernel_constraint": null, "use_bias": false, "kernel_regularizer": null, "kernel_size": [1, 7]}, "name": "conv2d_39", "class_name": "Conv2D"}, {"inbound_nodes": [[["average_pooling2d_4", 0, 0, {}]]], "config": {"kernel_initializer": {"config": {"scale": 1.0, "seed": null, "distribution": "uniform", "mode": "fan_avg"}, "class_name": "VarianceScaling"}, "bias_regularizer": null, "data_format": "channels_last", "strides": [1, 1], "bias_constraint": null, "filters": 192, "trainable": true, "name": "conv2d_40", "padding": "same", "bias_initializer": {"config": {}, "class_name": "Zeros"}, "activation": "linear", "activity_regularizer": null, "dilation_rate": [1, 1], "kernel_constraint": null, "use_bias": false, "kernel_regularizer": null, "kernel_size": [1, 1]}, "name": "conv2d_40", "class_name": "Conv2D"}, {"inbound_nodes": [[["conv2d_31", 0, 0, {}]]], "config": {"beta_constraint": null, "beta_initializer": {"config": {}, "class_name": "Zeros"}, "epsilon": 0.001, "axis": 3, "moving_mean_initializer": {"config": {}, "class_name": "Zeros"}, "moving_variance_initializer": {"config": {}, "class_name": "Ones"}, "trainable": true, "name": "batch_normalization_31", "scale": false, "center": true, "beta_regularizer": null, "gamma_constraint": null, "momentum": 0.99, "gamma_regularizer": null, "gamma_initializer": {"config": {}, "class_name": "Ones"}}, "name": "batch_normalization_31", "class_name": "BatchNormalization"}, {"inbound_nodes": [[["conv2d_34", 0, 0, {}]]], "config": {"beta_constraint": null, "beta_initializer": {"config": {}, "class_name": "Zeros"}, "epsilon": 0.001, "axis": 3, "moving_mean_initializer": {"config": {}, "class_name": "Zeros"}, "moving_variance_initializer": {"config": {}, "class_name": "Ones"}, "trainable": true, "name": "batch_normalization_34", "scale": false, "center": true, "beta_regularizer": null, "gamma_constraint": null, "momentum": 0.99, "gamma_regularizer": null, "gamma_initializer": {"config": {}, "class_name": "Ones"}}, "name": "batch_normalization_34", "class_name": "BatchNormalization"}, {"inbound_nodes": [[["conv2d_39", 0, 0, {}]]], "config": {"beta_constraint": null, "beta_initializer": {"config": {}, "class_name": "Zeros"}, "epsilon": 0.001, "axis": 3, "moving_mean_initializer": {"config": {}, "class_name": "Zeros"}, "moving_variance_initializer": {"config": {}, "class_name": "Ones"}, "trainable": true, "name": "batch_normalization_39", "scale": false, "center": true, "beta_regularizer": null, "gamma_constraint": null, "momentum": 0.99, "gamma_regularizer": null, "gamma_initializer": {"config": {}, "class_name": "Ones"}}, "name": "batch_normalization_39", "class_name": "BatchNormalization"}, {"inbound_nodes": [[["conv2d_40", 0, 0, {}]]], "config": {"beta_constraint": null, "beta_initializer": {"config": {}, "class_name": "Zeros"}, "epsilon": 0.001, "axis": 3, "moving_mean_initializer": {"config": {}, "class_name": "Zeros"}, "moving_variance_initializer": {"config": {}, "class_name": "Ones"}, "trainable": true, "name": "batch_normalization_40", "scale": false, "center": true, "beta_regularizer": null, "gamma_constraint": null, "momentum": 0.99, "gamma_regularizer": null, "gamma_initializer": {"config": {}, "class_name": "Ones"}}, "name": "batch_normalization_40", "class_name": "BatchNormalization"}, {"inbound_nodes": [[["batch_normalization_31", 0, 0, {}]]], "config": {"activation": "relu", "trainable": true, "name": "activation_31"}, "name": "activation_31", "class_name": "Activation"}, {"inbound_nodes": [[["batch_normalization_34", 0, 0, {}]]], "config": {"activation": "relu", "trainable": true, "name": "activation_34"}, "name": "activation_34", "class_name": "Activation"}, {"inbound_nodes": [[["batch_normalization_39", 0, 0, {}]]], "config": {"activation": "relu", "trainable": true, "name": "activation_39"}, "name": "activation_39", "class_name": "Activation"}, {"inbound_nodes": [[["batch_normalization_40", 0, 0, {}]]], "config": {"activation": "relu", "trainable": true, "name": "activation_40"}, "name": "activation_40", "class_name": "Activation"}, {"inbound_nodes": [[["activation_31", 0, 0, {}], ["activation_34", 0, 0, {}], ["activation_39", 0, 0, {}], ["activation_40", 0, 0, {}]]], "config": {"trainable": true, "name": "mixed4", "axis": 3}, "name": "mixed4", "class_name": "Concatenate"}, {"inbound_nodes": [[["mixed4", 0, 0, {}]]], "config": {"kernel_initializer": {"config": {"scale": 1.0, "seed": null, "distribution": "uniform", "mode": "fan_avg"}, "class_name": "VarianceScaling"}, "bias_regularizer": null, "data_format": "channels_last", "strides": [1, 1], "bias_constraint": null, "filters": 160, "trainable": true, "name": "conv2d_45", "padding": "same", "bias_initializer": {"config": {}, "class_name": "Zeros"}, "activation": "linear", "activity_regularizer": null, "dilation_rate": [1, 1], "kernel_constraint": null, "use_bias": false, "kernel_regularizer": null, "kernel_size": [1, 1]}, "name": "conv2d_45", "class_name": "Conv2D"}, {"inbound_nodes": [[["conv2d_45", 0, 0, {}]]], "config": {"beta_constraint": null, "beta_initializer": {"config": {}, "class_name": "Zeros"}, "epsilon": 0.001, "axis": 3, "moving_mean_initializer": {"config": {}, "class_name": "Zeros"}, "moving_variance_initializer": {"config": {}, "class_name": "Ones"}, "trainable": true, "name": "batch_normalization_45", "scale": false, "center": true, "beta_regularizer": null, "gamma_constraint": null, "momentum": 0.99, "gamma_regularizer": null, "gamma_initializer": {"config": {}, "class_name": "Ones"}}, "name": "batch_normalization_45", "class_name": "BatchNormalization"}, {"inbound_nodes": [[["batch_normalization_45", 0, 0, {}]]], "config": {"activation": "relu", "trainable": true, "name": "activation_45"}, "name": "activation_45", "class_name": "Activation"}, {"inbound_nodes": [[["activation_45", 0, 0, {}]]], "config": {"kernel_initializer": {"config": {"scale": 1.0, "seed": null, "distribution": "uniform", "mode": "fan_avg"}, "class_name": "VarianceScaling"}, "bias_regularizer": null, "data_format": "channels_last", "strides": [1, 1], "bias_constraint": null, "filters": 160, "trainable": true, "name": "conv2d_46", "padding": "same", "bias_initializer": {"config": {}, "class_name": "Zeros"}, "activation": "linear", "activity_regularizer": null, "dilation_rate": [1, 1], "kernel_constraint": null, "use_bias": false, "kernel_regularizer": null, "kernel_size": [7, 1]}, "name": "conv2d_46", "class_name": "Conv2D"}, {"inbound_nodes": [[["conv2d_46", 0, 0, {}]]], "config": {"beta_constraint": null, "beta_initializer": {"config": {}, "class_name": "Zeros"}, "epsilon": 0.001, "axis": 3, "moving_mean_initializer": {"config": {}, "class_name": "Zeros"}, "moving_variance_initializer": {"config": {}, "class_name": "Ones"}, "trainable": true, "name": "batch_normalization_46", "scale": false, "center": true, "beta_regularizer": null, "gamma_constraint": null, "momentum": 0.99, "gamma_regularizer": null, "gamma_initializer": {"config": {}, "class_name": "Ones"}}, "name": "batch_normalization_46", "class_name": "BatchNormalization"}, {"inbound_nodes": [[["batch_normalization_46", 0, 0, {}]]], "config": {"activation": "relu", "trainable": true, "name": "activation_46"}, "name": "activation_46", "class_name": "Activation"}, {"inbound_nodes": [[["mixed4", 0, 0, {}]]], "config": {"kernel_initializer": {"config": {"scale": 1.0, "seed": null, "distribution": "uniform", "mode": "fan_avg"}, "class_name": "VarianceScaling"}, "bias_regularizer": null, "data_format": "channels_last", "strides": [1, 1], "bias_constraint": null, "filters": 160, "trainable": true, "name": "conv2d_42", "padding": "same", "bias_initializer": {"config": {}, "class_name": "Zeros"}, "activation": "linear", "activity_regularizer": null, "dilation_rate": [1, 1], "kernel_constraint": null, "use_bias": false, "kernel_regularizer": null, "kernel_size": [1, 1]}, "name": "conv2d_42", "class_name": "Conv2D"}, {"inbound_nodes": [[["activation_46", 0, 0, {}]]], "config": {"kernel_initializer": {"config": {"scale": 1.0, "seed": null, "distribution": "uniform", "mode": "fan_avg"}, "class_name": "VarianceScaling"}, "bias_regularizer": null, "data_format": "channels_last", "strides": [1, 1], "bias_constraint": null, "filters": 160, "trainable": true, "name": "conv2d_47", "padding": "same", "bias_initializer": {"config": {}, "class_name": "Zeros"}, "activation": "linear", "activity_regularizer": null, "dilation_rate": [1, 1], "kernel_constraint": null, "use_bias": false, "kernel_regularizer": null, "kernel_size": [1, 7]}, "name": "conv2d_47", "class_name": "Conv2D"}, {"inbound_nodes": [[["conv2d_42", 0, 0, {}]]], "config": {"beta_constraint": null, "beta_initializer": {"config": {}, "class_name": "Zeros"}, "epsilon": 0.001, "axis": 3, "moving_mean_initializer": {"config": {}, "class_name": "Zeros"}, "moving_variance_initializer": {"config": {}, "class_name": "Ones"}, "trainable": true, "name": "batch_normalization_42", "scale": false, "center": true, "beta_regularizer": null, "gamma_constraint": null, "momentum": 0.99, "gamma_regularizer": null, "gamma_initializer": {"config": {}, "class_name": "Ones"}}, "name": "batch_normalization_42", "class_name": "BatchNormalization"}, {"inbound_nodes": [[["conv2d_47", 0, 0, {}]]], "config": {"beta_constraint": null, "beta_initializer": {"config": {}, "class_name": "Zeros"}, "epsilon": 0.001, "axis": 3, "moving_mean_initializer": {"config": {}, "class_name": "Zeros"}, "moving_variance_initializer": {"config": {}, "class_name": "Ones"}, "trainable": true, "name": "batch_normalization_47", "scale": false, "center": true, "beta_regularizer": null, "gamma_constraint": null, "momentum": 0.99, "gamma_regularizer": null, "gamma_initializer": {"config": {}, "class_name": "Ones"}}, "name": "batch_normalization_47", "class_name": "BatchNormalization"}, {"inbound_nodes": [[["batch_normalization_42", 0, 0, {}]]], "config": {"activation": "relu", "trainable": true, "name": "activation_42"}, "name": "activation_42", "class_name": "Activation"}, {"inbound_nodes": [[["batch_normalization_47", 0, 0, {}]]], "config": {"activation": "relu", "trainable": true, "name": "activation_47"}, "name": "activation_47", "class_name": "Activation"}, {"inbound_nodes": [[["activation_42", 0, 0, {}]]], "config": {"kernel_initializer": {"config": {"scale": 1.0, "seed": null, "distribution": "uniform", "mode": "fan_avg"}, "class_name": "VarianceScaling"}, "bias_regularizer": null, "data_format": "channels_last", "strides": [1, 1], "bias_constraint": null, "filters": 160, "trainable": true, "name": "conv2d_43", "padding": "same", "bias_initializer": {"config": {}, "class_name": "Zeros"}, "activation": "linear", "activity_regularizer": null, "dilation_rate": [1, 1], "kernel_constraint": null, "use_bias": false, "kernel_regularizer": null, "kernel_size": [1, 7]}, "name": "conv2d_43", "class_name": "Conv2D"}, {"inbound_nodes": [[["activation_47", 0, 0, {}]]], "config": {"kernel_initializer": {"config": {"scale": 1.0, "seed": null, "distribution": "uniform", "mode": "fan_avg"}, "class_name": "VarianceScaling"}, "bias_regularizer": null, "data_format": "channels_last", "strides": [1, 1], "bias_constraint": null, "filters": 160, "trainable": true, "name": "conv2d_48", "padding": "same", "bias_initializer": {"config": {}, "class_name": "Zeros"}, "activation": "linear", "activity_regularizer": null, "dilation_rate": [1, 1], "kernel_constraint": null, "use_bias": false, "kernel_regularizer": null, "kernel_size": [7, 1]}, "name": "conv2d_48", "class_name": "Conv2D"}, {"inbound_nodes": [[["conv2d_43", 0, 0, {}]]], "config": {"beta_constraint": null, "beta_initializer": {"config": {}, "class_name": "Zeros"}, "epsilon": 0.001, "axis": 3, "moving_mean_initializer": {"config": {}, "class_name": "Zeros"}, "moving_variance_initializer": {"config": {}, "class_name": "Ones"}, "trainable": true, "name": "batch_normalization_43", "scale": false, "center": true, "beta_regularizer": null, "gamma_constraint": null, "momentum": 0.99, "gamma_regularizer": null, "gamma_initializer": {"config": {}, "class_name": "Ones"}}, "name": "batch_normalization_43", "class_name": "BatchNormalization"}, {"inbound_nodes": [[["conv2d_48", 0, 0, {}]]], "config": {"beta_constraint": null, "beta_initializer": {"config": {}, "class_name": "Zeros"}, "epsilon": 0.001, "axis": 3, "moving_mean_initializer": {"config": {}, "class_name": "Zeros"}, "moving_variance_initializer": {"config": {}, "class_name": "Ones"}, "trainable": true, "name": "batch_normalization_48", "scale": false, "center": true, "beta_regularizer": null, "gamma_constraint": null, "momentum": 0.99, "gamma_regularizer": null, "gamma_initializer": {"config": {}, "class_name": "Ones"}}, "name": "batch_normalization_48", "class_name": "BatchNormalization"}, {"inbound_nodes": [[["batch_normalization_43", 0, 0, {}]]], "config": {"activation": "relu", "trainable": true, "name": "activation_43"}, "name": "activation_43", "class_name": "Activation"}, {"inbound_nodes": [[["batch_normalization_48", 0, 0, {}]]], "config": {"activation": "relu", "trainable": true, "name": "activation_48"}, "name": "activation_48", "class_name": "Activation"}, {"inbound_nodes": [[["mixed4", 0, 0, {}]]], "config": {"pool_size": [3, 3], "data_format": "channels_last", "strides": [1, 1], "padding": "same", "trainable": true, "name": "average_pooling2d_5"}, "name": "average_pooling2d_5", "class_name": "AveragePooling2D"}, {"inbound_nodes": [[["mixed4", 0, 0, {}]]], "config": {"kernel_initializer": {"config": {"scale": 1.0, "seed": null, "distribution": "uniform", "mode": "fan_avg"}, "class_name": "VarianceScaling"}, "bias_regularizer": null, "data_format": "channels_last", "strides": [1, 1], "bias_constraint": null, "filters": 192, "trainable": true, "name": "conv2d_41", "padding": "same", "bias_initializer": {"config": {}, "class_name": "Zeros"}, "activation": "linear", "activity_regularizer": null, "dilation_rate": [1, 1], "kernel_constraint": null, "use_bias": false, "kernel_regularizer": null, "kernel_size": [1, 1]}, "name": "conv2d_41", "class_name": "Conv2D"}, {"inbound_nodes": [[["activation_43", 0, 0, {}]]], "config": {"kernel_initializer": {"config": {"scale": 1.0, "seed": null, "distribution": "uniform", "mode": "fan_avg"}, "class_name": "VarianceScaling"}, "bias_regularizer": null, "data_format": "channels_last", "strides": [1, 1], "bias_constraint": null, "filters": 192, "trainable": true, "name": "conv2d_44", "padding": "same", "bias_initializer": {"config": {}, "class_name": "Zeros"}, "activation": "linear", "activity_regularizer": null, "dilation_rate": [1, 1], "kernel_constraint": null, "use_bias": false, "kernel_regularizer": null, "kernel_size": [7, 1]}, "name": "conv2d_44", "class_name": "Conv2D"}, {"inbound_nodes": [[["activation_48", 0, 0, {}]]], "config": {"kernel_initializer": {"config": {"scale": 1.0, "seed": null, "distribution": "uniform", "mode": "fan_avg"}, "class_name": "VarianceScaling"}, "bias_regularizer": null, "data_format": "channels_last", "strides": [1, 1], "bias_constraint": null, "filters": 192, "trainable": true, "name": "conv2d_49", "padding": "same", "bias_initializer": {"config": {}, "class_name": "Zeros"}, "activation": "linear", "activity_regularizer": null, "dilation_rate": [1, 1], "kernel_constraint": null, "use_bias": false, "kernel_regularizer": null, "kernel_size": [1, 7]}, "name": "conv2d_49", "class_name": "Conv2D"}, {"inbound_nodes": [[["average_pooling2d_5", 0, 0, {}]]], "config": {"kernel_initializer": {"config": {"scale": 1.0, "seed": null, "distribution": "uniform", "mode": "fan_avg"}, "class_name": "VarianceScaling"}, "bias_regularizer": null, "data_format": "channels_last", "strides": [1, 1], "bias_constraint": null, "filters": 192, "trainable": true, "name": "conv2d_50", "padding": "same", "bias_initializer": {"config": {}, "class_name": "Zeros"}, "activation": "linear", "activity_regularizer": null, "dilation_rate": [1, 1], "kernel_constraint": null, "use_bias": false, "kernel_regularizer": null, "kernel_size": [1, 1]}, "name": "conv2d_50", "class_name": "Conv2D"}, {"inbound_nodes": [[["conv2d_41", 0, 0, {}]]], "config": {"beta_constraint": null, "beta_initializer": {"config": {}, "class_name": "Zeros"}, "epsilon": 0.001, "axis": 3, "moving_mean_initializer": {"config": {}, "class_name": "Zeros"}, "moving_variance_initializer": {"config": {}, "class_name": "Ones"}, "trainable": true, "name": "batch_normalization_41", "scale": false, "center": true, "beta_regularizer": null, "gamma_constraint": null, "momentum": 0.99, "gamma_regularizer": null, "gamma_initializer": {"config": {}, "class_name": "Ones"}}, "name": "batch_normalization_41", "class_name": "BatchNormalization"}, {"inbound_nodes": [[["conv2d_44", 0, 0, {}]]], "config": {"beta_constraint": null, "beta_initializer": {"config": {}, "class_name": "Zeros"}, "epsilon": 0.001, "axis": 3, "moving_mean_initializer": {"config": {}, "class_name": "Zeros"}, "moving_variance_initializer": {"config": {}, "class_name": "Ones"}, "trainable": true, "name": "batch_normalization_44", "scale": false, "center": true, "beta_regularizer": null, "gamma_constraint": null, "momentum": 0.99, "gamma_regularizer": null, "gamma_initializer": {"config": {}, "class_name": "Ones"}}, "name": "batch_normalization_44", "class_name": "BatchNormalization"}, {"inbound_nodes": [[["conv2d_49", 0, 0, {}]]], "config": {"beta_constraint": null, "beta_initializer": {"config": {}, "class_name": "Zeros"}, "epsilon": 0.001, "axis": 3, "moving_mean_initializer": {"config": {}, "class_name": "Zeros"}, "moving_variance_initializer": {"config": {}, "class_name": "Ones"}, "trainable": true, "name": "batch_normalization_49", "scale": false, "center": true, "beta_regularizer": null, "gamma_constraint": null, "momentum": 0.99, "gamma_regularizer": null, "gamma_initializer": {"config": {}, "class_name": "Ones"}}, "name": "batch_normalization_49", "class_name": "BatchNormalization"}, {"inbound_nodes": [[["conv2d_50", 0, 0, {}]]], "config": {"beta_constraint": null, "beta_initializer": {"config": {}, "class_name": "Zeros"}, "epsilon": 0.001, "axis": 3, "moving_mean_initializer": {"config": {}, "class_name": "Zeros"}, "moving_variance_initializer": {"config": {}, "class_name": "Ones"}, "trainable": true, "name": "batch_normalization_50", "scale": false, "center": true, "beta_regularizer": null, "gamma_constraint": null, "momentum": 0.99, "gamma_regularizer": null, "gamma_initializer": {"config": {}, "class_name": "Ones"}}, "name": "batch_normalization_50", "class_name": "BatchNormalization"}, {"inbound_nodes": [[["batch_normalization_41", 0, 0, {}]]], "config": {"activation": "relu", "trainable": true, "name": "activation_41"}, "name": "activation_41", "class_name": "Activation"}, {"inbound_nodes": [[["batch_normalization_44", 0, 0, {}]]], "config": {"activation": "relu", "trainable": true, "name": "activation_44"}, "name": "activation_44", "class_name": "Activation"}, {"inbound_nodes": [[["batch_normalization_49", 0, 0, {}]]], "config": {"activation": "relu", "trainable": true, "name": "activation_49"}, "name": "activation_49", "class_name": "Activation"}, {"inbound_nodes": [[["batch_normalization_50", 0, 0, {}]]], "config": {"activation": "relu", "trainable": true, "name": "activation_50"}, "name": "activation_50", "class_name": "Activation"}, {"inbound_nodes": [[["activation_41", 0, 0, {}], ["activation_44", 0, 0, {}], ["activation_49", 0, 0, {}], ["activation_50", 0, 0, {}]]], "config": {"trainable": true, "name": "mixed5", "axis": 3}, "name": "mixed5", "class_name": "Concatenate"}, {"inbound_nodes": [[["mixed5", 0, 0, {}]]], "config": {"kernel_initializer": {"config": {"scale": 1.0, "seed": null, "distribution": "uniform", "mode": "fan_avg"}, "class_name": "VarianceScaling"}, "bias_regularizer": null, "data_format": "channels_last", "strides": [1, 1], "bias_constraint": null, "filters": 160, "trainable": true, "name": "conv2d_55", "padding": "same", "bias_initializer": {"config": {}, "class_name": "Zeros"}, "activation": "linear", "activity_regularizer": null, "dilation_rate": [1, 1], "kernel_constraint": null, "use_bias": false, "kernel_regularizer": null, "kernel_size": [1, 1]}, "name": "conv2d_55", "class_name": "Conv2D"}, {"inbound_nodes": [[["conv2d_55", 0, 0, {}]]], "config": {"beta_constraint": null, "beta_initializer": {"config": {}, "class_name": "Zeros"}, "epsilon": 0.001, "axis": 3, "moving_mean_initializer": {"config": {}, "class_name": "Zeros"}, "moving_variance_initializer": {"config": {}, "class_name": "Ones"}, "trainable": true, "name": "batch_normalization_55", "scale": false, "center": true, "beta_regularizer": null, "gamma_constraint": null, "momentum": 0.99, "gamma_regularizer": null, "gamma_initializer": {"config": {}, "class_name": "Ones"}}, "name": "batch_normalization_55", "class_name": "BatchNormalization"}, {"inbound_nodes": [[["batch_normalization_55", 0, 0, {}]]], "config": {"activation": "relu", "trainable": true, "name": "activation_55"}, "name": "activation_55", "class_name": "Activation"}, {"inbound_nodes": [[["activation_55", 0, 0, {}]]], "config": {"kernel_initializer": {"config": {"scale": 1.0, "seed": null, "distribution": "uniform", "mode": "fan_avg"}, "class_name": "VarianceScaling"}, "bias_regularizer": null, "data_format": "channels_last", "strides": [1, 1], "bias_constraint": null, "filters": 160, "trainable": true, "name": "conv2d_56", "padding": "same", "bias_initializer": {"config": {}, "class_name": "Zeros"}, "activation": "linear", "activity_regularizer": null, "dilation_rate": [1, 1], "kernel_constraint": null, "use_bias": false, "kernel_regularizer": null, "kernel_size": [7, 1]}, "name": "conv2d_56", "class_name": "Conv2D"}, {"inbound_nodes": [[["conv2d_56", 0, 0, {}]]], "config": {"beta_constraint": null, "beta_initializer": {"config": {}, "class_name": "Zeros"}, "epsilon": 0.001, "axis": 3, "moving_mean_initializer": {"config": {}, "class_name": "Zeros"}, "moving_variance_initializer": {"config": {}, "class_name": "Ones"}, "trainable": true, "name": "batch_normalization_56", "scale": false, "center": true, "beta_regularizer": null, "gamma_constraint": null, "momentum": 0.99, "gamma_regularizer": null, "gamma_initializer": {"config": {}, "class_name": "Ones"}}, "name": "batch_normalization_56", "class_name": "BatchNormalization"}, {"inbound_nodes": [[["batch_normalization_56", 0, 0, {}]]], "config": {"activation": "relu", "trainable": true, "name": "activation_56"}, "name": "activation_56", "class_name": "Activation"}, {"inbound_nodes": [[["mixed5", 0, 0, {}]]], "config": {"kernel_initializer": {"config": {"scale": 1.0, "seed": null, "distribution": "uniform", "mode": "fan_avg"}, "class_name": "VarianceScaling"}, "bias_regularizer": null, "data_format": "channels_last", "strides": [1, 1], "bias_constraint": null, "filters": 160, "trainable": true, "name": "conv2d_52", "padding": "same", "bias_initializer": {"config": {}, "class_name": "Zeros"}, "activation": "linear", "activity_regularizer": null, "dilation_rate": [1, 1], "kernel_constraint": null, "use_bias": false, "kernel_regularizer": null, "kernel_size": [1, 1]}, "name": "conv2d_52", "class_name": "Conv2D"}, {"inbound_nodes": [[["activation_56", 0, 0, {}]]], "config": {"kernel_initializer": {"config": {"scale": 1.0, "seed": null, "distribution": "uniform", "mode": "fan_avg"}, "class_name": "VarianceScaling"}, "bias_regularizer": null, "data_format": "channels_last", "strides": [1, 1], "bias_constraint": null, "filters": 160, "trainable": true, "name": "conv2d_57", "padding": "same", "bias_initializer": {"config": {}, "class_name": "Zeros"}, "activation": "linear", "activity_regularizer": null, "dilation_rate": [1, 1], "kernel_constraint": null, "use_bias": false, "kernel_regularizer": null, "kernel_size": [1, 7]}, "name": "conv2d_57", "class_name": "Conv2D"}, {"inbound_nodes": [[["conv2d_52", 0, 0, {}]]], "config": {"beta_constraint": null, "beta_initializer": {"config": {}, "class_name": "Zeros"}, "epsilon": 0.001, "axis": 3, "moving_mean_initializer": {"config": {}, "class_name": "Zeros"}, "moving_variance_initializer": {"config": {}, "class_name": "Ones"}, "trainable": true, "name": "batch_normalization_52", "scale": false, "center": true, "beta_regularizer": null, "gamma_constraint": null, "momentum": 0.99, "gamma_regularizer": null, "gamma_initializer": {"config": {}, "class_name": "Ones"}}, "name": "batch_normalization_52", "class_name": "BatchNormalization"}, {"inbound_nodes": [[["conv2d_57", 0, 0, {}]]], "config": {"beta_constraint": null, "beta_initializer": {"config": {}, "class_name": "Zeros"}, "epsilon": 0.001, "axis": 3, "moving_mean_initializer": {"config": {}, "class_name": "Zeros"}, "moving_variance_initializer": {"config": {}, "class_name": "Ones"}, "trainable": true, "name": "batch_normalization_57", "scale": false, "center": true, "beta_regularizer": null, "gamma_constraint": null, "momentum": 0.99, "gamma_regularizer": null, "gamma_initializer": {"config": {}, "class_name": "Ones"}}, "name": "batch_normalization_57", "class_name": "BatchNormalization"}, {"inbound_nodes": [[["batch_normalization_52", 0, 0, {}]]], "config": {"activation": "relu", "trainable": true, "name": "activation_52"}, "name": "activation_52", "class_name": "Activation"}, {"inbound_nodes": [[["batch_normalization_57", 0, 0, {}]]], "config": {"activation": "relu", "trainable": true, "name": "activation_57"}, "name": "activation_57", "class_name": "Activation"}, {"inbound_nodes": [[["activation_52", 0, 0, {}]]], "config": {"kernel_initializer": {"config": {"scale": 1.0, "seed": null, "distribution": "uniform", "mode": "fan_avg"}, "class_name": "VarianceScaling"}, "bias_regularizer": null, "data_format": "channels_last", "strides": [1, 1], "bias_constraint": null, "filters": 160, "trainable": true, "name": "conv2d_53", "padding": "same", "bias_initializer": {"config": {}, "class_name": "Zeros"}, "activation": "linear", "activity_regularizer": null, "dilation_rate": [1, 1], "kernel_constraint": null, "use_bias": false, "kernel_regularizer": null, "kernel_size": [1, 7]}, "name": "conv2d_53", "class_name": "Conv2D"}, {"inbound_nodes": [[["activation_57", 0, 0, {}]]], "config": {"kernel_initializer": {"config": {"scale": 1.0, "seed": null, "distribution": "uniform", "mode": "fan_avg"}, "class_name": "VarianceScaling"}, "bias_regularizer": null, "data_format": "channels_last", "strides": [1, 1], "bias_constraint": null, "filters": 160, "trainable": true, "name": "conv2d_58", "padding": "same", "bias_initializer": {"config": {}, "class_name": "Zeros"}, "activation": "linear", "activity_regularizer": null, "dilation_rate": [1, 1], "kernel_constraint": null, "use_bias": false, "kernel_regularizer": null, "kernel_size": [7, 1]}, "name": "conv2d_58", "class_name": "Conv2D"}, {"inbound_nodes": [[["conv2d_53", 0, 0, {}]]], "config": {"beta_constraint": null, "beta_initializer": {"config": {}, "class_name": "Zeros"}, "epsilon": 0.001, "axis": 3, "moving_mean_initializer": {"config": {}, "class_name": "Zeros"}, "moving_variance_initializer": {"config": {}, "class_name": "Ones"}, "trainable": true, "name": "batch_normalization_53", "scale": false, "center": true, "beta_regularizer": null, "gamma_constraint": null, "momentum": 0.99, "gamma_regularizer": null, "gamma_initializer": {"config": {}, "class_name": "Ones"}}, "name": "batch_normalization_53", "class_name": "BatchNormalization"}, {"inbound_nodes": [[["conv2d_58", 0, 0, {}]]], "config": {"beta_constraint": null, "beta_initializer": {"config": {}, "class_name": "Zeros"}, "epsilon": 0.001, "axis": 3, "moving_mean_initializer": {"config": {}, "class_name": "Zeros"}, "moving_variance_initializer": {"config": {}, "class_name": "Ones"}, "trainable": true, "name": "batch_normalization_58", "scale": false, "center": true, "beta_regularizer": null, "gamma_constraint": null, "momentum": 0.99, "gamma_regularizer": null, "gamma_initializer": {"config": {}, "class_name": "Ones"}}, "name": "batch_normalization_58", "class_name": "BatchNormalization"}, {"inbound_nodes": [[["batch_normalization_53", 0, 0, {}]]], "config": {"activation": "relu", "trainable": true, "name": "activation_53"}, "name": "activation_53", "class_name": "Activation"}, {"inbound_nodes": [[["batch_normalization_58", 0, 0, {}]]], "config": {"activation": "relu", "trainable": true, "name": "activation_58"}, "name": "activation_58", "class_name": "Activation"}, {"inbound_nodes": [[["mixed5", 0, 0, {}]]], "config": {"pool_size": [3, 3], "data_format": "channels_last", "strides": [1, 1], "padding": "same", "trainable": true, "name": "average_pooling2d_6"}, "name": "average_pooling2d_6", "class_name": "AveragePooling2D"}, {"inbound_nodes": [[["mixed5", 0, 0, {}]]], "config": {"kernel_initializer": {"config": {"scale": 1.0, "seed": null, "distribution": "uniform", "mode": "fan_avg"}, "class_name": "VarianceScaling"}, "bias_regularizer": null, "data_format": "channels_last", "strides": [1, 1], "bias_constraint": null, "filters": 192, "trainable": true, "name": "conv2d_51", "padding": "same", "bias_initializer": {"config": {}, "class_name": "Zeros"}, "activation": "linear", "activity_regularizer": null, "dilation_rate": [1, 1], "kernel_constraint": null, "use_bias": false, "kernel_regularizer": null, "kernel_size": [1, 1]}, "name": "conv2d_51", "class_name": "Conv2D"}, {"inbound_nodes": [[["activation_53", 0, 0, {}]]], "config": {"kernel_initializer": {"config": {"scale": 1.0, "seed": null, "distribution": "uniform", "mode": "fan_avg"}, "class_name": "VarianceScaling"}, "bias_regularizer": null, "data_format": "channels_last", "strides": [1, 1], "bias_constraint": null, "filters": 192, "trainable": true, "name": "conv2d_54", "padding": "same", "bias_initializer": {"config": {}, "class_name": "Zeros"}, "activation": "linear", "activity_regularizer": null, "dilation_rate": [1, 1], "kernel_constraint": null, "use_bias": false, "kernel_regularizer": null, "kernel_size": [7, 1]}, "name": "conv2d_54", "class_name": "Conv2D"}, {"inbound_nodes": [[["activation_58", 0, 0, {}]]], "config": {"kernel_initializer": {"config": {"scale": 1.0, "seed": null, "distribution": "uniform", "mode": "fan_avg"}, "class_name": "VarianceScaling"}, "bias_regularizer": null, "data_format": "channels_last", "strides": [1, 1], "bias_constraint": null, "filters": 192, "trainable": true, "name": "conv2d_59", "padding": "same", "bias_initializer": {"config": {}, "class_name": "Zeros"}, "activation": "linear", "activity_regularizer": null, "dilation_rate": [1, 1], "kernel_constraint": null, "use_bias": false, "kernel_regularizer": null, "kernel_size": [1, 7]}, "name": "conv2d_59", "class_name": "Conv2D"}, {"inbound_nodes": [[["average_pooling2d_6", 0, 0, {}]]], "config": {"kernel_initializer": {"config": {"scale": 1.0, "seed": null, "distribution": "uniform", "mode": "fan_avg"}, "class_name": "VarianceScaling"}, "bias_regularizer": null, "data_format": "channels_last", "strides": [1, 1], "bias_constraint": null, "filters": 192, "trainable": true, "name": "conv2d_60", "padding": "same", "bias_initializer": {"config": {}, "class_name": "Zeros"}, "activation": "linear", "activity_regularizer": null, "dilation_rate": [1, 1], "kernel_constraint": null, "use_bias": false, "kernel_regularizer": null, "kernel_size": [1, 1]}, "name": "conv2d_60", "class_name": "Conv2D"}, {"inbound_nodes": [[["conv2d_51", 0, 0, {}]]], "config": {"beta_constraint": null, "beta_initializer": {"config": {}, "class_name": "Zeros"}, "epsilon": 0.001, "axis": 3, "moving_mean_initializer": {"config": {}, "class_name": "Zeros"}, "moving_variance_initializer": {"config": {}, "class_name": "Ones"}, "trainable": true, "name": "batch_normalization_51", "scale": false, "center": true, "beta_regularizer": null, "gamma_constraint": null, "momentum": 0.99, "gamma_regularizer": null, "gamma_initializer": {"config": {}, "class_name": "Ones"}}, "name": "batch_normalization_51", "class_name": "BatchNormalization"}, {"inbound_nodes": [[["conv2d_54", 0, 0, {}]]], "config": {"beta_constraint": null, "beta_initializer": {"config": {}, "class_name": "Zeros"}, "epsilon": 0.001, "axis": 3, "moving_mean_initializer": {"config": {}, "class_name": "Zeros"}, "moving_variance_initializer": {"config": {}, "class_name": "Ones"}, "trainable": true, "name": "batch_normalization_54", "scale": false, "center": true, "beta_regularizer": null, "gamma_constraint": null, "momentum": 0.99, "gamma_regularizer": null, "gamma_initializer": {"config": {}, "class_name": "Ones"}}, "name": "batch_normalization_54", "class_name": "BatchNormalization"}, {"inbound_nodes": [[["conv2d_59", 0, 0, {}]]], "config": {"beta_constraint": null, "beta_initializer": {"config": {}, "class_name": "Zeros"}, "epsilon": 0.001, "axis": 3, "moving_mean_initializer": {"config": {}, "class_name": "Zeros"}, "moving_variance_initializer": {"config": {}, "class_name": "Ones"}, "trainable": true, "name": "batch_normalization_59", "scale": false, "center": true, "beta_regularizer": null, "gamma_constraint": null, "momentum": 0.99, "gamma_regularizer": null, "gamma_initializer": {"config": {}, "class_name": "Ones"}}, "name": "batch_normalization_59", "class_name": "BatchNormalization"}, {"inbound_nodes": [[["conv2d_60", 0, 0, {}]]], "config": {"beta_constraint": null, "beta_initializer": {"config": {}, "class_name": "Zeros"}, "epsilon": 0.001, "axis": 3, "moving_mean_initializer": {"config": {}, "class_name": "Zeros"}, "moving_variance_initializer": {"config": {}, "class_name": "Ones"}, "trainable": true, "name": "batch_normalization_60", "scale": false, "center": true, "beta_regularizer": null, "gamma_constraint": null, "momentum": 0.99, "gamma_regularizer": null, "gamma_initializer": {"config": {}, "class_name": "Ones"}}, "name": "batch_normalization_60", "class_name": "BatchNormalization"}, {"inbound_nodes": [[["batch_normalization_51", 0, 0, {}]]], "config": {"activation": "relu", "trainable": true, "name": "activation_51"}, "name": "activation_51", "class_name": "Activation"}, {"inbound_nodes": [[["batch_normalization_54", 0, 0, {}]]], "config": {"activation": "relu", "trainable": true, "name": "activation_54"}, "name": "activation_54", "class_name": "Activation"}, {"inbound_nodes": [[["batch_normalization_59", 0, 0, {}]]], "config": {"activation": "relu", "trainable": true, "name": "activation_59"}, "name": "activation_59", "class_name": "Activation"}, {"inbound_nodes": [[["batch_normalization_60", 0, 0, {}]]], "config": {"activation": "relu", "trainable": true, "name": "activation_60"}, "name": "activation_60", "class_name": "Activation"}, {"inbound_nodes": [[["activation_51", 0, 0, {}], ["activation_54", 0, 0, {}], ["activation_59", 0, 0, {}], ["activation_60", 0, 0, {}]]], "config": {"trainable": true, "name": "mixed6", "axis": 3}, "name": "mixed6", "class_name": "Concatenate"}, {"inbound_nodes": [[["mixed6", 0, 0, {}]]], "config": {"kernel_initializer": {"config": {"scale": 1.0, "seed": null, "distribution": "uniform", "mode": "fan_avg"}, "class_name": "VarianceScaling"}, "bias_regularizer": null, "data_format": "channels_last", "strides": [1, 1], "bias_constraint": null, "filters": 192, "trainable": true, "name": "conv2d_65", "padding": "same", "bias_initializer": {"config": {}, "class_name": "Zeros"}, "activation": "linear", "activity_regularizer": null, "dilation_rate": [1, 1], "kernel_constraint": null, "use_bias": false, "kernel_regularizer": null, "kernel_size": [1, 1]}, "name": "conv2d_65", "class_name": "Conv2D"}, {"inbound_nodes": [[["conv2d_65", 0, 0, {}]]], "config": {"beta_constraint": null, "beta_initializer": {"config": {}, "class_name": "Zeros"}, "epsilon": 0.001, "axis": 3, "moving_mean_initializer": {"config": {}, "class_name": "Zeros"}, "moving_variance_initializer": {"config": {}, "class_name": "Ones"}, "trainable": true, "name": "batch_normalization_65", "scale": false, "center": true, "beta_regularizer": null, "gamma_constraint": null, "momentum": 0.99, "gamma_regularizer": null, "gamma_initializer": {"config": {}, "class_name": "Ones"}}, "name": "batch_normalization_65", "class_name": "BatchNormalization"}, {"inbound_nodes": [[["batch_normalization_65", 0, 0, {}]]], "config": {"activation": "relu", "trainable": true, "name": "activation_65"}, "name": "activation_65", "class_name": "Activation"}, {"inbound_nodes": [[["activation_65", 0, 0, {}]]], "config": {"kernel_initializer": {"config": {"scale": 1.0, "seed": null, "distribution": "uniform", "mode": "fan_avg"}, "class_name": "VarianceScaling"}, "bias_regularizer": null, "data_format": "channels_last", "strides": [1, 1], "bias_constraint": null, "filters": 192, "trainable": true, "name": "conv2d_66", "padding": "same", "bias_initializer": {"config": {}, "class_name": "Zeros"}, "activation": "linear", "activity_regularizer": null, "dilation_rate": [1, 1], "kernel_constraint": null, "use_bias": false, "kernel_regularizer": null, "kernel_size": [7, 1]}, "name": "conv2d_66", "class_name": "Conv2D"}, {"inbound_nodes": [[["conv2d_66", 0, 0, {}]]], "config": {"beta_constraint": null, "beta_initializer": {"config": {}, "class_name": "Zeros"}, "epsilon": 0.001, "axis": 3, "moving_mean_initializer": {"config": {}, "class_name": "Zeros"}, "moving_variance_initializer": {"config": {}, "class_name": "Ones"}, "trainable": true, "name": "batch_normalization_66", "scale": false, "center": true, "beta_regularizer": null, "gamma_constraint": null, "momentum": 0.99, "gamma_regularizer": null, "gamma_initializer": {"config": {}, "class_name": "Ones"}}, "name": "batch_normalization_66", "class_name": "BatchNormalization"}, {"inbound_nodes": [[["batch_normalization_66", 0, 0, {}]]], "config": {"activation": "relu", "trainable": true, "name": "activation_66"}, "name": "activation_66", "class_name": "Activation"}, {"inbound_nodes": [[["mixed6", 0, 0, {}]]], "config": {"kernel_initializer": {"config": {"scale": 1.0, "seed": null, "distribution": "uniform", "mode": "fan_avg"}, "class_name": "VarianceScaling"}, "bias_regularizer": null, "data_format": "channels_last", "strides": [1, 1], "bias_constraint": null, "filters": 192, "trainable": true, "name": "conv2d_62", "padding": "same", "bias_initializer": {"config": {}, "class_name": "Zeros"}, "activation": "linear", "activity_regularizer": null, "dilation_rate": [1, 1], "kernel_constraint": null, "use_bias": false, "kernel_regularizer": null, "kernel_size": [1, 1]}, "name": "conv2d_62", "class_name": "Conv2D"}, {"inbound_nodes": [[["activation_66", 0, 0, {}]]], "config": {"kernel_initializer": {"config": {"scale": 1.0, "seed": null, "distribution": "uniform", "mode": "fan_avg"}, "class_name": "VarianceScaling"}, "bias_regularizer": null, "data_format": "channels_last", "strides": [1, 1], "bias_constraint": null, "filters": 192, "trainable": true, "name": "conv2d_67", "padding": "same", "bias_initializer": {"config": {}, "class_name": "Zeros"}, "activation": "linear", "activity_regularizer": null, "dilation_rate": [1, 1], "kernel_constraint": null, "use_bias": false, "kernel_regularizer": null, "kernel_size": [1, 7]}, "name": "conv2d_67", "class_name": "Conv2D"}, {"inbound_nodes": [[["conv2d_62", 0, 0, {}]]], "config": {"beta_constraint": null, "beta_initializer": {"config": {}, "class_name": "Zeros"}, "epsilon": 0.001, "axis": 3, "moving_mean_initializer": {"config": {}, "class_name": "Zeros"}, "moving_variance_initializer": {"config": {}, "class_name": "Ones"}, "trainable": true, "name": "batch_normalization_62", "scale": false, "center": true, "beta_regularizer": null, "gamma_constraint": null, "momentum": 0.99, "gamma_regularizer": null, "gamma_initializer": {"config": {}, "class_name": "Ones"}}, "name": "batch_normalization_62", "class_name": "BatchNormalization"}, {"inbound_nodes": [[["conv2d_67", 0, 0, {}]]], "config": {"beta_constraint": null, "beta_initializer": {"config": {}, "class_name": "Zeros"}, "epsilon": 0.001, "axis": 3, "moving_mean_initializer": {"config": {}, "class_name": "Zeros"}, "moving_variance_initializer": {"config": {}, "class_name": "Ones"}, "trainable": true, "name": "batch_normalization_67", "scale": false, "center": true, "beta_regularizer": null, "gamma_constraint": null, "momentum": 0.99, "gamma_regularizer": null, "gamma_initializer": {"config": {}, "class_name": "Ones"}}, "name": "batch_normalization_67", "class_name": "BatchNormalization"}, {"inbound_nodes": [[["batch_normalization_62", 0, 0, {}]]], "config": {"activation": "relu", "trainable": true, "name": "activation_62"}, "name": "activation_62", "class_name": "Activation"}, {"inbound_nodes": [[["batch_normalization_67", 0, 0, {}]]], "config": {"activation": "relu", "trainable": true, "name": "activation_67"}, "name": "activation_67", "class_name": "Activation"}, {"inbound_nodes": [[["activation_62", 0, 0, {}]]], "config": {"kernel_initializer": {"config": {"scale": 1.0, "seed": null, "distribution": "uniform", "mode": "fan_avg"}, "class_name": "VarianceScaling"}, "bias_regularizer": null, "data_format": "channels_last", "strides": [1, 1], "bias_constraint": null, "filters": 192, "trainable": true, "name": "conv2d_63", "padding": "same", "bias_initializer": {"config": {}, "class_name": "Zeros"}, "activation": "linear", "activity_regularizer": null, "dilation_rate": [1, 1], "kernel_constraint": null, "use_bias": false, "kernel_regularizer": null, "kernel_size": [1, 7]}, "name": "conv2d_63", "class_name": "Conv2D"}, {"inbound_nodes": [[["activation_67", 0, 0, {}]]], "config": {"kernel_initializer": {"config": {"scale": 1.0, "seed": null, "distribution": "uniform", "mode": "fan_avg"}, "class_name": "VarianceScaling"}, "bias_regularizer": null, "data_format": "channels_last", "strides": [1, 1], "bias_constraint": null, "filters": 192, "trainable": true, "name": "conv2d_68", "padding": "same", "bias_initializer": {"config": {}, "class_name": "Zeros"}, "activation": "linear", "activity_regularizer": null, "dilation_rate": [1, 1], "kernel_constraint": null, "use_bias": false, "kernel_regularizer": null, "kernel_size": [7, 1]}, "name": "conv2d_68", "class_name": "Conv2D"}, {"inbound_nodes": [[["conv2d_63", 0, 0, {}]]], "config": {"beta_constraint": null, "beta_initializer": {"config": {}, "class_name": "Zeros"}, "epsilon": 0.001, "axis": 3, "moving_mean_initializer": {"config": {}, "class_name": "Zeros"}, "moving_variance_initializer": {"config": {}, "class_name": "Ones"}, "trainable": true, "name": "batch_normalization_63", "scale": false, "center": true, "beta_regularizer": null, "gamma_constraint": null, "momentum": 0.99, "gamma_regularizer": null, "gamma_initializer": {"config": {}, "class_name": "Ones"}}, "name": "batch_normalization_63", "class_name": "BatchNormalization"}, {"inbound_nodes": [[["conv2d_68", 0, 0, {}]]], "config": {"beta_constraint": null, "beta_initializer": {"config": {}, "class_name": "Zeros"}, "epsilon": 0.001, "axis": 3, "moving_mean_initializer": {"config": {}, "class_name": "Zeros"}, "moving_variance_initializer": {"config": {}, "class_name": "Ones"}, "trainable": true, "name": "batch_normalization_68", "scale": false, "center": true, "beta_regularizer": null, "gamma_constraint": null, "momentum": 0.99, "gamma_regularizer": null, "gamma_initializer": {"config": {}, "class_name": "Ones"}}, "name": "batch_normalization_68", "class_name": "BatchNormalization"}, {"inbound_nodes": [[["batch_normalization_63", 0, 0, {}]]], "config": {"activation": "relu", "trainable": true, "name": "activation_63"}, "name": "activation_63", "class_name": "Activation"}, {"inbound_nodes": [[["batch_normalization_68", 0, 0, {}]]], "config": {"activation": "relu", "trainable": true, "name": "activation_68"}, "name": "activation_68", "class_name": "Activation"}, {"inbound_nodes": [[["mixed6", 0, 0, {}]]], "config": {"pool_size": [3, 3], "data_format": "channels_last", "strides": [1, 1], "padding": "same", "trainable": true, "name": "average_pooling2d_7"}, "name": "average_pooling2d_7", "class_name": "AveragePooling2D"}, {"inbound_nodes": [[["mixed6", 0, 0, {}]]], "config": {"kernel_initializer": {"config": {"scale": 1.0, "seed": null, "distribution": "uniform", "mode": "fan_avg"}, "class_name": "VarianceScaling"}, "bias_regularizer": null, "data_format": "channels_last", "strides": [1, 1], "bias_constraint": null, "filters": 192, "trainable": true, "name": "conv2d_61", "padding": "same", "bias_initializer": {"config": {}, "class_name": "Zeros"}, "activation": "linear", "activity_regularizer": null, "dilation_rate": [1, 1], "kernel_constraint": null, "use_bias": false, "kernel_regularizer": null, "kernel_size": [1, 1]}, "name": "conv2d_61", "class_name": "Conv2D"}, {"inbound_nodes": [[["activation_63", 0, 0, {}]]], "config": {"kernel_initializer": {"config": {"scale": 1.0, "seed": null, "distribution": "uniform", "mode": "fan_avg"}, "class_name": "VarianceScaling"}, "bias_regularizer": null, "data_format": "channels_last", "strides": [1, 1], "bias_constraint": null, "filters": 192, "trainable": true, "name": "conv2d_64", "padding": "same", "bias_initializer": {"config": {}, "class_name": "Zeros"}, "activation": "linear", "activity_regularizer": null, "dilation_rate": [1, 1], "kernel_constraint": null, "use_bias": false, "kernel_regularizer": null, "kernel_size": [7, 1]}, "name": "conv2d_64", "class_name": "Conv2D"}, {"inbound_nodes": [[["activation_68", 0, 0, {}]]], "config": {"kernel_initializer": {"config": {"scale": 1.0, "seed": null, "distribution": "uniform", "mode": "fan_avg"}, "class_name": "VarianceScaling"}, "bias_regularizer": null, "data_format": "channels_last", "strides": [1, 1], "bias_constraint": null, "filters": 192, "trainable": true, "name": "conv2d_69", "padding": "same", "bias_initializer": {"config": {}, "class_name": "Zeros"}, "activation": "linear", "activity_regularizer": null, "dilation_rate": [1, 1], "kernel_constraint": null, "use_bias": false, "kernel_regularizer": null, "kernel_size": [1, 7]}, "name": "conv2d_69", "class_name": "Conv2D"}, {"inbound_nodes": [[["average_pooling2d_7", 0, 0, {}]]], "config": {"kernel_initializer": {"config": {"scale": 1.0, "seed": null, "distribution": "uniform", "mode": "fan_avg"}, "class_name": "VarianceScaling"}, "bias_regularizer": null, "data_format": "channels_last", "strides": [1, 1], "bias_constraint": null, "filters": 192, "trainable": true, "name": "conv2d_70", "padding": "same", "bias_initializer": {"config": {}, "class_name": "Zeros"}, "activation": "linear", "activity_regularizer": null, "dilation_rate": [1, 1], "kernel_constraint": null, "use_bias": false, "kernel_regularizer": null, "kernel_size": [1, 1]}, "name": "conv2d_70", "class_name": "Conv2D"}, {"inbound_nodes": [[["conv2d_61", 0, 0, {}]]], "config": {"beta_constraint": null, "beta_initializer": {"config": {}, "class_name": "Zeros"}, "epsilon": 0.001, "axis": 3, "moving_mean_initializer": {"config": {}, "class_name": "Zeros"}, "moving_variance_initializer": {"config": {}, "class_name": "Ones"}, "trainable": true, "name": "batch_normalization_61", "scale": false, "center": true, "beta_regularizer": null, "gamma_constraint": null, "momentum": 0.99, "gamma_regularizer": null, "gamma_initializer": {"config": {}, "class_name": "Ones"}}, "name": "batch_normalization_61", "class_name": "BatchNormalization"}, {"inbound_nodes": [[["conv2d_64", 0, 0, {}]]], "config": {"beta_constraint": null, "beta_initializer": {"config": {}, "class_name": "Zeros"}, "epsilon": 0.001, "axis": 3, "moving_mean_initializer": {"config": {}, "class_name": "Zeros"}, "moving_variance_initializer": {"config": {}, "class_name": "Ones"}, "trainable": true, "name": "batch_normalization_64", "scale": false, "center": true, "beta_regularizer": null, "gamma_constraint": null, "momentum": 0.99, "gamma_regularizer": null, "gamma_initializer": {"config": {}, "class_name": "Ones"}}, "name": "batch_normalization_64", "class_name": "BatchNormalization"}, {"inbound_nodes": [[["conv2d_69", 0, 0, {}]]], "config": {"beta_constraint": null, "beta_initializer": {"config": {}, "class_name": "Zeros"}, "epsilon": 0.001, "axis": 3, "moving_mean_initializer": {"config": {}, "class_name": "Zeros"}, "moving_variance_initializer": {"config": {}, "class_name": "Ones"}, "trainable": true, "name": "batch_normalization_69", "scale": false, "center": true, "beta_regularizer": null, "gamma_constraint": null, "momentum": 0.99, "gamma_regularizer": null, "gamma_initializer": {"config": {}, "class_name": "Ones"}}, "name": "batch_normalization_69", "class_name": "BatchNormalization"}, {"inbound_nodes": [[["conv2d_70", 0, 0, {}]]], "config": {"beta_constraint": null, "beta_initializer": {"config": {}, "class_name": "Zeros"}, "epsilon": 0.001, "axis": 3, "moving_mean_initializer": {"config": {}, "class_name": "Zeros"}, "moving_variance_initializer": {"config": {}, "class_name": "Ones"}, "trainable": true, "name": "batch_normalization_70", "scale": false, "center": true, "beta_regularizer": null, "gamma_constraint": null, "momentum": 0.99, "gamma_regularizer": null, "gamma_initializer": {"config": {}, "class_name": "Ones"}}, "name": "batch_normalization_70", "class_name": "BatchNormalization"}, {"inbound_nodes": [[["batch_normalization_61", 0, 0, {}]]], "config": {"activation": "relu", "trainable": true, "name": "activation_61"}, "name": "activation_61", "class_name": "Activation"}, {"inbound_nodes": [[["batch_normalization_64", 0, 0, {}]]], "config": {"activation": "relu", "trainable": true, "name": "activation_64"}, "name": "activation_64", "class_name": "Activation"}, {"inbound_nodes": [[["batch_normalization_69", 0, 0, {}]]], "config": {"activation": "relu", "trainable": true, "name": "activation_69"}, "name": "activation_69", "class_name": "Activation"}, {"inbound_nodes": [[["batch_normalization_70", 0, 0, {}]]], "config": {"activation": "relu", "trainable": true, "name": "activation_70"}, "name": "activation_70", "class_name": "Activation"}, {"inbound_nodes": [[["activation_61", 0, 0, {}], ["activation_64", 0, 0, {}], ["activation_69", 0, 0, {}], ["activation_70", 0, 0, {}]]], "config": {"trainable": true, "name": "mixed7", "axis": 3}, "name": "mixed7", "class_name": "Concatenate"}, {"inbound_nodes": [[["mixed7", 0, 0, {}]]], "config": {"kernel_initializer": {"config": {"scale": 1.0, "seed": null, "distribution": "uniform", "mode": "fan_avg"}, "class_name": "VarianceScaling"}, "bias_regularizer": null, "data_format": "channels_last", "strides": [1, 1], "bias_constraint": null, "filters": 192, "trainable": true, "name": "conv2d_73", "padding": "same", "bias_initializer": {"config": {}, "class_name": "Zeros"}, "activation": "linear", "activity_regularizer": null, "dilation_rate": [1, 1], "kernel_constraint": null, "use_bias": false, "kernel_regularizer": null, "kernel_size": [1, 1]}, "name": "conv2d_73", "class_name": "Conv2D"}, {"inbound_nodes": [[["conv2d_73", 0, 0, {}]]], "config": {"beta_constraint": null, "beta_initializer": {"config": {}, "class_name": "Zeros"}, "epsilon": 0.001, "axis": 3, "moving_mean_initializer": {"config": {}, "class_name": "Zeros"}, "moving_variance_initializer": {"config": {}, "class_name": "Ones"}, "trainable": true, "name": "batch_normalization_73", "scale": false, "center": true, "beta_regularizer": null, "gamma_constraint": null, "momentum": 0.99, "gamma_regularizer": null, "gamma_initializer": {"config": {}, "class_name": "Ones"}}, "name": "batch_normalization_73", "class_name": "BatchNormalization"}, {"inbound_nodes": [[["batch_normalization_73", 0, 0, {}]]], "config": {"activation": "relu", "trainable": true, "name": "activation_73"}, "name": "activation_73", "class_name": "Activation"}, {"inbound_nodes": [[["activation_73", 0, 0, {}]]], "config": {"kernel_initializer": {"config": {"scale": 1.0, "seed": null, "distribution": "uniform", "mode": "fan_avg"}, "class_name": "VarianceScaling"}, "bias_regularizer": null, "data_format": "channels_last", "strides": [1, 1], "bias_constraint": null, "filters": 192, "trainable": true, "name": "conv2d_74", "padding": "same", "bias_initializer": {"config": {}, "class_name": "Zeros"}, "activation": "linear", "activity_regularizer": null, "dilation_rate": [1, 1], "kernel_constraint": null, "use_bias": false, "kernel_regularizer": null, "kernel_size": [1, 7]}, "name": "conv2d_74", "class_name": "Conv2D"}, {"inbound_nodes": [[["conv2d_74", 0, 0, {}]]], "config": {"beta_constraint": null, "beta_initializer": {"config": {}, "class_name": "Zeros"}, "epsilon": 0.001, "axis": 3, "moving_mean_initializer": {"config": {}, "class_name": "Zeros"}, "moving_variance_initializer": {"config": {}, "class_name": "Ones"}, "trainable": true, "name": "batch_normalization_74", "scale": false, "center": true, "beta_regularizer": null, "gamma_constraint": null, "momentum": 0.99, "gamma_regularizer": null, "gamma_initializer": {"config": {}, "class_name": "Ones"}}, "name": "batch_normalization_74", "class_name": "BatchNormalization"}, {"inbound_nodes": [[["batch_normalization_74", 0, 0, {}]]], "config": {"activation": "relu", "trainable": true, "name": "activation_74"}, "name": "activation_74", "class_name": "Activation"}, {"inbound_nodes": [[["mixed7", 0, 0, {}]]], "config": {"kernel_initializer": {"config": {"scale": 1.0, "seed": null, "distribution": "uniform", "mode": "fan_avg"}, "class_name": "VarianceScaling"}, "bias_regularizer": null, "data_format": "channels_last", "strides": [1, 1], "bias_constraint": null, "filters": 192, "trainable": true, "name": "conv2d_71", "padding": "same", "bias_initializer": {"config": {}, "class_name": "Zeros"}, "activation": "linear", "activity_regularizer": null, "dilation_rate": [1, 1], "kernel_constraint": null, "use_bias": false, "kernel_regularizer": null, "kernel_size": [1, 1]}, "name": "conv2d_71", "class_name": "Conv2D"}, {"inbound_nodes": [[["activation_74", 0, 0, {}]]], "config": {"kernel_initializer": {"config": {"scale": 1.0, "seed": null, "distribution": "uniform", "mode": "fan_avg"}, "class_name": "VarianceScaling"}, "bias_regularizer": null, "data_format": "channels_last", "strides": [1, 1], "bias_constraint": null, "filters": 192, "trainable": true, "name": "conv2d_75", "padding": "same", "bias_initializer": {"config": {}, "class_name": "Zeros"}, "activation": "linear", "activity_regularizer": null, "dilation_rate": [1, 1], "kernel_constraint": null, "use_bias": false, "kernel_regularizer": null, "kernel_size": [7, 1]}, "name": "conv2d_75", "class_name": "Conv2D"}, {"inbound_nodes": [[["conv2d_71", 0, 0, {}]]], "config": {"beta_constraint": null, "beta_initializer": {"config": {}, "class_name": "Zeros"}, "epsilon": 0.001, "axis": 3, "moving_mean_initializer": {"config": {}, "class_name": "Zeros"}, "moving_variance_initializer": {"config": {}, "class_name": "Ones"}, "trainable": true, "name": "batch_normalization_71", "scale": false, "center": true, "beta_regularizer": null, "gamma_constraint": null, "momentum": 0.99, "gamma_regularizer": null, "gamma_initializer": {"config": {}, "class_name": "Ones"}}, "name": "batch_normalization_71", "class_name": "BatchNormalization"}, {"inbound_nodes": [[["conv2d_75", 0, 0, {}]]], "config": {"beta_constraint": null, "beta_initializer": {"config": {}, "class_name": "Zeros"}, "epsilon": 0.001, "axis": 3, "moving_mean_initializer": {"config": {}, "class_name": "Zeros"}, "moving_variance_initializer": {"config": {}, "class_name": "Ones"}, "trainable": true, "name": "batch_normalization_75", "scale": false, "center": true, "beta_regularizer": null, "gamma_constraint": null, "momentum": 0.99, "gamma_regularizer": null, "gamma_initializer": {"config": {}, "class_name": "Ones"}}, "name": "batch_normalization_75", "class_name": "BatchNormalization"}, {"inbound_nodes": [[["batch_normalization_71", 0, 0, {}]]], "config": {"activation": "relu", "trainable": true, "name": "activation_71"}, "name": "activation_71", "class_name": "Activation"}, {"inbound_nodes": [[["batch_normalization_75", 0, 0, {}]]], "config": {"activation": "relu", "trainable": true, "name": "activation_75"}, "name": "activation_75", "class_name": "Activation"}, {"inbound_nodes": [[["activation_71", 0, 0, {}]]], "config": {"kernel_initializer": {"config": {"scale": 1.0, "seed": null, "distribution": "uniform", "mode": "fan_avg"}, "class_name": "VarianceScaling"}, "bias_regularizer": null, "data_format": "channels_last", "strides": [2, 2], "bias_constraint": null, "filters": 320, "trainable": true, "name": "conv2d_72", "padding": "valid", "bias_initializer": {"config": {}, "class_name": "Zeros"}, "activation": "linear", "activity_regularizer": null, "dilation_rate": [1, 1], "kernel_constraint": null, "use_bias": false, "kernel_regularizer": null, "kernel_size": [3, 3]}, "name": "conv2d_72", "class_name": "Conv2D"}, {"inbound_nodes": [[["activation_75", 0, 0, {}]]], "config": {"kernel_initializer": {"config": {"scale": 1.0, "seed": null, "distribution": "uniform", "mode": "fan_avg"}, "class_name": "VarianceScaling"}, "bias_regularizer": null, "data_format": "channels_last", "strides": [2, 2], "bias_constraint": null, "filters": 192, "trainable": true, "name": "conv2d_76", "padding": "valid", "bias_initializer": {"config": {}, "class_name": "Zeros"}, "activation": "linear", "activity_regularizer": null, "dilation_rate": [1, 1], "kernel_constraint": null, "use_bias": false, "kernel_regularizer": null, "kernel_size": [3, 3]}, "name": "conv2d_76", "class_name": "Conv2D"}, {"inbound_nodes": [[["conv2d_72", 0, 0, {}]]], "config": {"beta_constraint": null, "beta_initializer": {"config": {}, "class_name": "Zeros"}, "epsilon": 0.001, "axis": 3, "moving_mean_initializer": {"config": {}, "class_name": "Zeros"}, "moving_variance_initializer": {"config": {}, "class_name": "Ones"}, "trainable": true, "name": "batch_normalization_72", "scale": false, "center": true, "beta_regularizer": null, "gamma_constraint": null, "momentum": 0.99, "gamma_regularizer": null, "gamma_initializer": {"config": {}, "class_name": "Ones"}}, "name": "batch_normalization_72", "class_name": "BatchNormalization"}, {"inbound_nodes": [[["conv2d_76", 0, 0, {}]]], "config": {"beta_constraint": null, "beta_initializer": {"config": {}, "class_name": "Zeros"}, "epsilon": 0.001, "axis": 3, "moving_mean_initializer": {"config": {}, "class_name": "Zeros"}, "moving_variance_initializer": {"config": {}, "class_name": "Ones"}, "trainable": true, "name": "batch_normalization_76", "scale": false, "center": true, "beta_regularizer": null, "gamma_constraint": null, "momentum": 0.99, "gamma_regularizer": null, "gamma_initializer": {"config": {}, "class_name": "Ones"}}, "name": "batch_normalization_76", "class_name": "BatchNormalization"}, {"inbound_nodes": [[["batch_normalization_72", 0, 0, {}]]], "config": {"activation": "relu", "trainable": true, "name": "activation_72"}, "name": "activation_72", "class_name": "Activation"}, {"inbound_nodes": [[["batch_normalization_76", 0, 0, {}]]], "config": {"activation": "relu", "trainable": true, "name": "activation_76"}, "name": "activation_76", "class_name": "Activation"}, {"inbound_nodes": [[["mixed7", 0, 0, {}]]], "config": {"pool_size": [3, 3], "data_format": "channels_last", "strides": [2, 2], "padding": "valid", "trainable": true, "name": "max_pooling2d_4"}, "name": "max_pooling2d_4", "class_name": "MaxPooling2D"}, {"inbound_nodes": [[["activation_72", 0, 0, {}], ["activation_76", 0, 0, {}], ["max_pooling2d_4", 0, 0, {}]]], "config": {"trainable": true, "name": "mixed8", "axis": 3}, "name": "mixed8", "class_name": "Concatenate"}, {"inbound_nodes": [[["mixed8", 0, 0, {}]]], "config": {"kernel_initializer": {"config": {"scale": 1.0, "seed": null, "distribution": "uniform", "mode": "fan_avg"}, "class_name": "VarianceScaling"}, "bias_regularizer": null, "data_format": "channels_last", "strides": [1, 1], "bias_constraint": null, "filters": 448, "trainable": true, "name": "conv2d_81", "padding": "same", "bias_initializer": {"config": {}, "class_name": "Zeros"}, "activation": "linear", "activity_regularizer": null, "dilation_rate": [1, 1], "kernel_constraint": null, "use_bias": false, "kernel_regularizer": null, "kernel_size": [1, 1]}, "name": "conv2d_81", "class_name": "Conv2D"}, {"inbound_nodes": [[["conv2d_81", 0, 0, {}]]], "config": {"beta_constraint": null, "beta_initializer": {"config": {}, "class_name": "Zeros"}, "epsilon": 0.001, "axis": 3, "moving_mean_initializer": {"config": {}, "class_name": "Zeros"}, "moving_variance_initializer": {"config": {}, "class_name": "Ones"}, "trainable": true, "name": "batch_normalization_81", "scale": false, "center": true, "beta_regularizer": null, "gamma_constraint": null, "momentum": 0.99, "gamma_regularizer": null, "gamma_initializer": {"config": {}, "class_name": "Ones"}}, "name": "batch_normalization_81", "class_name": "BatchNormalization"}, {"inbound_nodes": [[["batch_normalization_81", 0, 0, {}]]], "config": {"activation": "relu", "trainable": true, "name": "activation_81"}, "name": "activation_81", "class_name": "Activation"}, {"inbound_nodes": [[["mixed8", 0, 0, {}]]], "config": {"kernel_initializer": {"config": {"scale": 1.0, "seed": null, "distribution": "uniform", "mode": "fan_avg"}, "class_name": "VarianceScaling"}, "bias_regularizer": null, "data_format": "channels_last", "strides": [1, 1], "bias_constraint": null, "filters": 384, "trainable": true, "name": "conv2d_78", "padding": "same", "bias_initializer": {"config": {}, "class_name": "Zeros"}, "activation": "linear", "activity_regularizer": null, "dilation_rate": [1, 1], "kernel_constraint": null, "use_bias": false, "kernel_regularizer": null, "kernel_size": [1, 1]}, "name": "conv2d_78", "class_name": "Conv2D"}, {"inbound_nodes": [[["activation_81", 0, 0, {}]]], "config": {"kernel_initializer": {"config": {"scale": 1.0, "seed": null, "distribution": "uniform", "mode": "fan_avg"}, "class_name": "VarianceScaling"}, "bias_regularizer": null, "data_format": "channels_last", "strides": [1, 1], "bias_constraint": null, "filters": 384, "trainable": true, "name": "conv2d_82", "padding": "same", "bias_initializer": {"config": {}, "class_name": "Zeros"}, "activation": "linear", "activity_regularizer": null, "dilation_rate": [1, 1], "kernel_constraint": null, "use_bias": false, "kernel_regularizer": null, "kernel_size": [3, 3]}, "name": "conv2d_82", "class_name": "Conv2D"}, {"inbound_nodes": [[["conv2d_78", 0, 0, {}]]], "config": {"beta_constraint": null, "beta_initializer": {"config": {}, "class_name": "Zeros"}, "epsilon": 0.001, "axis": 3, "moving_mean_initializer": {"config": {}, "class_name": "Zeros"}, "moving_variance_initializer": {"config": {}, "class_name": "Ones"}, "trainable": true, "name": "batch_normalization_78", "scale": false, "center": true, "beta_regularizer": null, "gamma_constraint": null, "momentum": 0.99, "gamma_regularizer": null, "gamma_initializer": {"config": {}, "class_name": "Ones"}}, "name": "batch_normalization_78", "class_name": "BatchNormalization"}, {"inbound_nodes": [[["conv2d_82", 0, 0, {}]]], "config": {"beta_constraint": null, "beta_initializer": {"config": {}, "class_name": "Zeros"}, "epsilon": 0.001, "axis": 3, "moving_mean_initializer": {"config": {}, "class_name": "Zeros"}, "moving_variance_initializer": {"config": {}, "class_name": "Ones"}, "trainable": true, "name": "batch_normalization_82", "scale": false, "center": true, "beta_regularizer": null, "gamma_constraint": null, "momentum": 0.99, "gamma_regularizer": null, "gamma_initializer": {"config": {}, "class_name": "Ones"}}, "name": "batch_normalization_82", "class_name": "BatchNormalization"}, {"inbound_nodes": [[["batch_normalization_78", 0, 0, {}]]], "config": {"activation": "relu", "trainable": true, "name": "activation_78"}, "name": "activation_78", "class_name": "Activation"}, {"inbound_nodes": [[["batch_normalization_82", 0, 0, {}]]], "config": {"activation": "relu", "trainable": true, "name": "activation_82"}, "name": "activation_82", "class_name": "Activation"}, {"inbound_nodes": [[["activation_78", 0, 0, {}]]], "config": {"kernel_initializer": {"config": {"scale": 1.0, "seed": null, "distribution": "uniform", "mode": "fan_avg"}, "class_name": "VarianceScaling"}, "bias_regularizer": null, "data_format": "channels_last", "strides": [1, 1], "bias_constraint": null, "filters": 384, "trainable": true, "name": "conv2d_79", "padding": "same", "bias_initializer": {"config": {}, "class_name": "Zeros"}, "activation": "linear", "activity_regularizer": null, "dilation_rate": [1, 1], "kernel_constraint": null, "use_bias": false, "kernel_regularizer": null, "kernel_size": [1, 3]}, "name": "conv2d_79", "class_name": "Conv2D"}, {"inbound_nodes": [[["activation_78", 0, 0, {}]]], "config": {"kernel_initializer": {"config": {"scale": 1.0, "seed": null, "distribution": "uniform", "mode": "fan_avg"}, "class_name": "VarianceScaling"}, "bias_regularizer": null, "data_format": "channels_last", "strides": [1, 1], "bias_constraint": null, "filters": 384, "trainable": true, "name": "conv2d_80", "padding": "same", "bias_initializer": {"config": {}, "class_name": "Zeros"}, "activation": "linear", "activity_regularizer": null, "dilation_rate": [1, 1], "kernel_constraint": null, "use_bias": false, "kernel_regularizer": null, "kernel_size": [3, 1]}, "name": "conv2d_80", "class_name": "Conv2D"}, {"inbound_nodes": [[["activation_82", 0, 0, {}]]], "config": {"kernel_initializer": {"config": {"scale": 1.0, "seed": null, "distribution": "uniform", "mode": "fan_avg"}, "class_name": "VarianceScaling"}, "bias_regularizer": null, "data_format": "channels_last", "strides": [1, 1], "bias_constraint": null, "filters": 384, "trainable": true, "name": "conv2d_83", "padding": "same", "bias_initializer": {"config": {}, "class_name": "Zeros"}, "activation": "linear", "activity_regularizer": null, "dilation_rate": [1, 1], "kernel_constraint": null, "use_bias": false, "kernel_regularizer": null, "kernel_size": [1, 3]}, "name": "conv2d_83", "class_name": "Conv2D"}, {"inbound_nodes": [[["activation_82", 0, 0, {}]]], "config": {"kernel_initializer": {"config": {"scale": 1.0, "seed": null, "distribution": "uniform", "mode": "fan_avg"}, "class_name": "VarianceScaling"}, "bias_regularizer": null, "data_format": "channels_last", "strides": [1, 1], "bias_constraint": null, "filters": 384, "trainable": true, "name": "conv2d_84", "padding": "same", "bias_initializer": {"config": {}, "class_name": "Zeros"}, "activation": "linear", "activity_regularizer": null, "dilation_rate": [1, 1], "kernel_constraint": null, "use_bias": false, "kernel_regularizer": null, "kernel_size": [3, 1]}, "name": "conv2d_84", "class_name": "Conv2D"}, {"inbound_nodes": [[["mixed8", 0, 0, {}]]], "config": {"pool_size": [3, 3], "data_format": "channels_last", "strides": [1, 1], "padding": "same", "trainable": true, "name": "average_pooling2d_8"}, "name": "average_pooling2d_8", "class_name": "AveragePooling2D"}, {"inbound_nodes": [[["mixed8", 0, 0, {}]]], "config": {"kernel_initializer": {"config": {"scale": 1.0, "seed": null, "distribution": "uniform", "mode": "fan_avg"}, "class_name": "VarianceScaling"}, "bias_regularizer": null, "data_format": "channels_last", "strides": [1, 1], "bias_constraint": null, "filters": 320, "trainable": true, "name": "conv2d_77", "padding": "same", "bias_initializer": {"config": {}, "class_name": "Zeros"}, "activation": "linear", "activity_regularizer": null, "dilation_rate": [1, 1], "kernel_constraint": null, "use_bias": false, "kernel_regularizer": null, "kernel_size": [1, 1]}, "name": "conv2d_77", "class_name": "Conv2D"}, {"inbound_nodes": [[["conv2d_79", 0, 0, {}]]], "config": {"beta_constraint": null, "beta_initializer": {"config": {}, "class_name": "Zeros"}, "epsilon": 0.001, "axis": 3, "moving_mean_initializer": {"config": {}, "class_name": "Zeros"}, "moving_variance_initializer": {"config": {}, "class_name": "Ones"}, "trainable": true, "name": "batch_normalization_79", "scale": false, "center": true, "beta_regularizer": null, "gamma_constraint": null, "momentum": 0.99, "gamma_regularizer": null, "gamma_initializer": {"config": {}, "class_name": "Ones"}}, "name": "batch_normalization_79", "class_name": "BatchNormalization"}, {"inbound_nodes": [[["conv2d_80", 0, 0, {}]]], "config": {"beta_constraint": null, "beta_initializer": {"config": {}, "class_name": "Zeros"}, "epsilon": 0.001, "axis": 3, "moving_mean_initializer": {"config": {}, "class_name": "Zeros"}, "moving_variance_initializer": {"config": {}, "class_name": "Ones"}, "trainable": true, "name": "batch_normalization_80", "scale": false, "center": true, "beta_regularizer": null, "gamma_constraint": null, "momentum": 0.99, "gamma_regularizer": null, "gamma_initializer": {"config": {}, "class_name": "Ones"}}, "name": "batch_normalization_80", "class_name": "BatchNormalization"}, {"inbound_nodes": [[["conv2d_83", 0, 0, {}]]], "config": {"beta_constraint": null, "beta_initializer": {"config": {}, "class_name": "Zeros"}, "epsilon": 0.001, "axis": 3, "moving_mean_initializer": {"config": {}, "class_name": "Zeros"}, "moving_variance_initializer": {"config": {}, "class_name": "Ones"}, "trainable": true, "name": "batch_normalization_83", "scale": false, "center": true, "beta_regularizer": null, "gamma_constraint": null, "momentum": 0.99, "gamma_regularizer": null, "gamma_initializer": {"config": {}, "class_name": "Ones"}}, "name": "batch_normalization_83", "class_name": "BatchNormalization"}, {"inbound_nodes": [[["conv2d_84", 0, 0, {}]]], "config": {"beta_constraint": null, "beta_initializer": {"config": {}, "class_name": "Zeros"}, "epsilon": 0.001, "axis": 3, "moving_mean_initializer": {"config": {}, "class_name": "Zeros"}, "moving_variance_initializer": {"config": {}, "class_name": "Ones"}, "trainable": true, "name": "batch_normalization_84", "scale": false, "center": true, "beta_regularizer": null, "gamma_constraint": null, "momentum": 0.99, "gamma_regularizer": null, "gamma_initializer": {"config": {}, "class_name": "Ones"}}, "name": "batch_normalization_84", "class_name": "BatchNormalization"}, {"inbound_nodes": [[["average_pooling2d_8", 0, 0, {}]]], "config": {"kernel_initializer": {"config": {"scale": 1.0, "seed": null, "distribution": "uniform", "mode": "fan_avg"}, "class_name": "VarianceScaling"}, "bias_regularizer": null, "data_format": "channels_last", "strides": [1, 1], "bias_constraint": null, "filters": 192, "trainable": true, "name": "conv2d_85", "padding": "same", "bias_initializer": {"config": {}, "class_name": "Zeros"}, "activation": "linear", "activity_regularizer": null, "dilation_rate": [1, 1], "kernel_constraint": null, "use_bias": false, "kernel_regularizer": null, "kernel_size": [1, 1]}, "name": "conv2d_85", "class_name": "Conv2D"}, {"inbound_nodes": [[["conv2d_77", 0, 0, {}]]], "config": {"beta_constraint": null, "beta_initializer": {"config": {}, "class_name": "Zeros"}, "epsilon": 0.001, "axis": 3, "moving_mean_initializer": {"config": {}, "class_name": "Zeros"}, "moving_variance_initializer": {"config": {}, "class_name": "Ones"}, "trainable": true, "name": "batch_normalization_77", "scale": false, "center": true, "beta_regularizer": null, "gamma_constraint": null, "momentum": 0.99, "gamma_regularizer": null, "gamma_initializer": {"config": {}, "class_name": "Ones"}}, "name": "batch_normalization_77", "class_name": "BatchNormalization"}, {"inbound_nodes": [[["batch_normalization_79", 0, 0, {}]]], "config": {"activation": "relu", "trainable": true, "name": "activation_79"}, "name": "activation_79", "class_name": "Activation"}, {"inbound_nodes": [[["batch_normalization_80", 0, 0, {}]]], "config": {"activation": "relu", "trainable": true, "name": "activation_80"}, "name": "activation_80", "class_name": "Activation"}, {"inbound_nodes": [[["batch_normalization_83", 0, 0, {}]]], "config": {"activation": "relu", "trainable": true, "name": "activation_83"}, "name": "activation_83", "class_name": "Activation"}, {"inbound_nodes": [[["batch_normalization_84", 0, 0, {}]]], "config": {"activation": "relu", "trainable": true, "name": "activation_84"}, "name": "activation_84", "class_name": "Activation"}, {"inbound_nodes": [[["conv2d_85", 0, 0, {}]]], "config": {"beta_constraint": null, "beta_initializer": {"config": {}, "class_name": "Zeros"}, "epsilon": 0.001, "axis": 3, "moving_mean_initializer": {"config": {}, "class_name": "Zeros"}, "moving_variance_initializer": {"config": {}, "class_name": "Ones"}, "trainable": true, "name": "batch_normalization_85", "scale": false, "center": true, "beta_regularizer": null, "gamma_constraint": null, "momentum": 0.99, "gamma_regularizer": null, "gamma_initializer": {"config": {}, "class_name": "Ones"}}, "name": "batch_normalization_85", "class_name": "BatchNormalization"}, {"inbound_nodes": [[["batch_normalization_77", 0, 0, {}]]], "config": {"activation": "relu", "trainable": true, "name": "activation_77"}, "name": "activation_77", "class_name": "Activation"}, {"inbound_nodes": [[["activation_79", 0, 0, {}], ["activation_80", 0, 0, {}]]], "config": {"trainable": true, "name": "mixed9_0", "axis": 3}, "name": "mixed9_0", "class_name": "Concatenate"}, {"inbound_nodes": [[["activation_83", 0, 0, {}], ["activation_84", 0, 0, {}]]], "config": {"trainable": true, "name": "concatenate_1", "axis": 3}, "name": "concatenate_1", "class_name": "Concatenate"}, {"inbound_nodes": [[["batch_normalization_85", 0, 0, {}]]], "config": {"activation": "relu", "trainable": true, "name": "activation_85"}, "name": "activation_85", "class_name": "Activation"}, {"inbound_nodes": [[["activation_77", 0, 0, {}], ["mixed9_0", 0, 0, {}], ["concatenate_1", 0, 0, {}], ["activation_85", 0, 0, {}]]], "config": {"trainable": true, "name": "mixed9", "axis": 3}, "name": "mixed9", "class_name": "Concatenate"}, {"inbound_nodes": [[["mixed9", 0, 0, {}]]], "config": {"kernel_initializer": {"config": {"scale": 1.0, "seed": null, "distribution": "uniform", "mode": "fan_avg"}, "class_name": "VarianceScaling"}, "bias_regularizer": null, "data_format": "channels_last", "strides": [1, 1], "bias_constraint": null, "filters": 448, "trainable": true, "name": "conv2d_90", "padding": "same", "bias_initializer": {"config": {}, "class_name": "Zeros"}, "activation": "linear", "activity_regularizer": null, "dilation_rate": [1, 1], "kernel_constraint": null, "use_bias": false, "kernel_regularizer": null, "kernel_size": [1, 1]}, "name": "conv2d_90", "class_name": "Conv2D"}, {"inbound_nodes": [[["conv2d_90", 0, 0, {}]]], "config": {"beta_constraint": null, "beta_initializer": {"config": {}, "class_name": "Zeros"}, "epsilon": 0.001, "axis": 3, "moving_mean_initializer": {"config": {}, "class_name": "Zeros"}, "moving_variance_initializer": {"config": {}, "class_name": "Ones"}, "trainable": true, "name": "batch_normalization_90", "scale": false, "center": true, "beta_regularizer": null, "gamma_constraint": null, "momentum": 0.99, "gamma_regularizer": null, "gamma_initializer": {"config": {}, "class_name": "Ones"}}, "name": "batch_normalization_90", "class_name": "BatchNormalization"}, {"inbound_nodes": [[["batch_normalization_90", 0, 0, {}]]], "config": {"activation": "relu", "trainable": true, "name": "activation_90"}, "name": "activation_90", "class_name": "Activation"}, {"inbound_nodes": [[["mixed9", 0, 0, {}]]], "config": {"kernel_initializer": {"config": {"scale": 1.0, "seed": null, "distribution": "uniform", "mode": "fan_avg"}, "class_name": "VarianceScaling"}, "bias_regularizer": null, "data_format": "channels_last", "strides": [1, 1], "bias_constraint": null, "filters": 384, "trainable": true, "name": "conv2d_87", "padding": "same", "bias_initializer": {"config": {}, "class_name": "Zeros"}, "activation": "linear", "activity_regularizer": null, "dilation_rate": [1, 1], "kernel_constraint": null, "use_bias": false, "kernel_regularizer": null, "kernel_size": [1, 1]}, "name": "conv2d_87", "class_name": "Conv2D"}, {"inbound_nodes": [[["activation_90", 0, 0, {}]]], "config": {"kernel_initializer": {"config": {"scale": 1.0, "seed": null, "distribution": "uniform", "mode": "fan_avg"}, "class_name": "VarianceScaling"}, "bias_regularizer": null, "data_format": "channels_last", "strides": [1, 1], "bias_constraint": null, "filters": 384, "trainable": true, "name": "conv2d_91", "padding": "same", "bias_initializer": {"config": {}, "class_name": "Zeros"}, "activation": "linear", "activity_regularizer": null, "dilation_rate": [1, 1], "kernel_constraint": null, "use_bias": false, "kernel_regularizer": null, "kernel_size": [3, 3]}, "name": "conv2d_91", "class_name": "Conv2D"}, {"inbound_nodes": [[["conv2d_87", 0, 0, {}]]], "config": {"beta_constraint": null, "beta_initializer": {"config": {}, "class_name": "Zeros"}, "epsilon": 0.001, "axis": 3, "moving_mean_initializer": {"config": {}, "class_name": "Zeros"}, "moving_variance_initializer": {"config": {}, "class_name": "Ones"}, "trainable": true, "name": "batch_normalization_87", "scale": false, "center": true, "beta_regularizer": null, "gamma_constraint": null, "momentum": 0.99, "gamma_regularizer": null, "gamma_initializer": {"config": {}, "class_name": "Ones"}}, "name": "batch_normalization_87", "class_name": "BatchNormalization"}, {"inbound_nodes": [[["conv2d_91", 0, 0, {}]]], "config": {"beta_constraint": null, "beta_initializer": {"config": {}, "class_name": "Zeros"}, "epsilon": 0.001, "axis": 3, "moving_mean_initializer": {"config": {}, "class_name": "Zeros"}, "moving_variance_initializer": {"config": {}, "class_name": "Ones"}, "trainable": true, "name": "batch_normalization_91", "scale": false, "center": true, "beta_regularizer": null, "gamma_constraint": null, "momentum": 0.99, "gamma_regularizer": null, "gamma_initializer": {"config": {}, "class_name": "Ones"}}, "name": "batch_normalization_91", "class_name": "BatchNormalization"}, {"inbound_nodes": [[["batch_normalization_87", 0, 0, {}]]], "config": {"activation": "relu", "trainable": true, "name": "activation_87"}, "name": "activation_87", "class_name": "Activation"}, {"inbound_nodes": [[["batch_normalization_91", 0, 0, {}]]], "config": {"activation": "relu", "trainable": true, "name": "activation_91"}, "name": "activation_91", "class_name": "Activation"}, {"inbound_nodes": [[["activation_87", 0, 0, {}]]], "config": {"kernel_initializer": {"config": {"scale": 1.0, "seed": null, "distribution": "uniform", "mode": "fan_avg"}, "class_name": "VarianceScaling"}, "bias_regularizer": null, "data_format": "channels_last", "strides": [1, 1], "bias_constraint": null, "filters": 384, "trainable": true, "name": "conv2d_88", "padding": "same", "bias_initializer": {"config": {}, "class_name": "Zeros"}, "activation": "linear", "activity_regularizer": null, "dilation_rate": [1, 1], "kernel_constraint": null, "use_bias": false, "kernel_regularizer": null, "kernel_size": [1, 3]}, "name": "conv2d_88", "class_name": "Conv2D"}, {"inbound_nodes": [[["activation_87", 0, 0, {}]]], "config": {"kernel_initializer": {"config": {"scale": 1.0, "seed": null, "distribution": "uniform", "mode": "fan_avg"}, "class_name": "VarianceScaling"}, "bias_regularizer": null, "data_format": "channels_last", "strides": [1, 1], "bias_constraint": null, "filters": 384, "trainable": true, "name": "conv2d_89", "padding": "same", "bias_initializer": {"config": {}, "class_name": "Zeros"}, "activation": "linear", "activity_regularizer": null, "dilation_rate": [1, 1], "kernel_constraint": null, "use_bias": false, "kernel_regularizer": null, "kernel_size": [3, 1]}, "name": "conv2d_89", "class_name": "Conv2D"}, {"inbound_nodes": [[["activation_91", 0, 0, {}]]], "config": {"kernel_initializer": {"config": {"scale": 1.0, "seed": null, "distribution": "uniform", "mode": "fan_avg"}, "class_name": "VarianceScaling"}, "bias_regularizer": null, "data_format": "channels_last", "strides": [1, 1], "bias_constraint": null, "filters": 384, "trainable": true, "name": "conv2d_92", "padding": "same", "bias_initializer": {"config": {}, "class_name": "Zeros"}, "activation": "linear", "activity_regularizer": null, "dilation_rate": [1, 1], "kernel_constraint": null, "use_bias": false, "kernel_regularizer": null, "kernel_size": [1, 3]}, "name": "conv2d_92", "class_name": "Conv2D"}, {"inbound_nodes": [[["activation_91", 0, 0, {}]]], "config": {"kernel_initializer": {"config": {"scale": 1.0, "seed": null, "distribution": "uniform", "mode": "fan_avg"}, "class_name": "VarianceScaling"}, "bias_regularizer": null, "data_format": "channels_last", "strides": [1, 1], "bias_constraint": null, "filters": 384, "trainable": true, "name": "conv2d_93", "padding": "same", "bias_initializer": {"config": {}, "class_name": "Zeros"}, "activation": "linear", "activity_regularizer": null, "dilation_rate": [1, 1], "kernel_constraint": null, "use_bias": false, "kernel_regularizer": null, "kernel_size": [3, 1]}, "name": "conv2d_93", "class_name": "Conv2D"}, {"inbound_nodes": [[["mixed9", 0, 0, {}]]], "config": {"pool_size": [3, 3], "data_format": "channels_last", "strides": [1, 1], "padding": "same", "trainable": true, "name": "average_pooling2d_9"}, "name": "average_pooling2d_9", "class_name": "AveragePooling2D"}, {"inbound_nodes": [[["mixed9", 0, 0, {}]]], "config": {"kernel_initializer": {"config": {"scale": 1.0, "seed": null, "distribution": "uniform", "mode": "fan_avg"}, "class_name": "VarianceScaling"}, "bias_regularizer": null, "data_format": "channels_last", "strides": [1, 1], "bias_constraint": null, "filters": 320, "trainable": true, "name": "conv2d_86", "padding": "same", "bias_initializer": {"config": {}, "class_name": "Zeros"}, "activation": "linear", "activity_regularizer": null, "dilation_rate": [1, 1], "kernel_constraint": null, "use_bias": false, "kernel_regularizer": null, "kernel_size": [1, 1]}, "name": "conv2d_86", "class_name": "Conv2D"}, {"inbound_nodes": [[["conv2d_88", 0, 0, {}]]], "config": {"beta_constraint": null, "beta_initializer": {"config": {}, "class_name": "Zeros"}, "epsilon": 0.001, "axis": 3, "moving_mean_initializer": {"config": {}, "class_name": "Zeros"}, "moving_variance_initializer": {"config": {}, "class_name": "Ones"}, "trainable": true, "name": "batch_normalization_88", "scale": false, "center": true, "beta_regularizer": null, "gamma_constraint": null, "momentum": 0.99, "gamma_regularizer": null, "gamma_initializer": {"config": {}, "class_name": "Ones"}}, "name": "batch_normalization_88", "class_name": "BatchNormalization"}, {"inbound_nodes": [[["conv2d_89", 0, 0, {}]]], "config": {"beta_constraint": null, "beta_initializer": {"config": {}, "class_name": "Zeros"}, "epsilon": 0.001, "axis": 3, "moving_mean_initializer": {"config": {}, "class_name": "Zeros"}, "moving_variance_initializer": {"config": {}, "class_name": "Ones"}, "trainable": true, "name": "batch_normalization_89", "scale": false, "center": true, "beta_regularizer": null, "gamma_constraint": null, "momentum": 0.99, "gamma_regularizer": null, "gamma_initializer": {"config": {}, "class_name": "Ones"}}, "name": "batch_normalization_89", "class_name": "BatchNormalization"}, {"inbound_nodes": [[["conv2d_92", 0, 0, {}]]], "config": {"beta_constraint": null, "beta_initializer": {"config": {}, "class_name": "Zeros"}, "epsilon": 0.001, "axis": 3, "moving_mean_initializer": {"config": {}, "class_name": "Zeros"}, "moving_variance_initializer": {"config": {}, "class_name": "Ones"}, "trainable": true, "name": "batch_normalization_92", "scale": false, "center": true, "beta_regularizer": null, "gamma_constraint": null, "momentum": 0.99, "gamma_regularizer": null, "gamma_initializer": {"config": {}, "class_name": "Ones"}}, "name": "batch_normalization_92", "class_name": "BatchNormalization"}, {"inbound_nodes": [[["conv2d_93", 0, 0, {}]]], "config": {"beta_constraint": null, "beta_initializer": {"config": {}, "class_name": "Zeros"}, "epsilon": 0.001, "axis": 3, "moving_mean_initializer": {"config": {}, "class_name": "Zeros"}, "moving_variance_initializer": {"config": {}, "class_name": "Ones"}, "trainable": true, "name": "batch_normalization_93", "scale": false, "center": true, "beta_regularizer": null, "gamma_constraint": null, "momentum": 0.99, "gamma_regularizer": null, "gamma_initializer": {"config": {}, "class_name": "Ones"}}, "name": "batch_normalization_93", "class_name": "BatchNormalization"}, {"inbound_nodes": [[["average_pooling2d_9", 0, 0, {}]]], "config": {"kernel_initializer": {"config": {"scale": 1.0, "seed": null, "distribution": "uniform", "mode": "fan_avg"}, "class_name": "VarianceScaling"}, "bias_regularizer": null, "data_format": "channels_last", "strides": [1, 1], "bias_constraint": null, "filters": 192, "trainable": true, "name": "conv2d_94", "padding": "same", "bias_initializer": {"config": {}, "class_name": "Zeros"}, "activation": "linear", "activity_regularizer": null, "dilation_rate": [1, 1], "kernel_constraint": null, "use_bias": false, "kernel_regularizer": null, "kernel_size": [1, 1]}, "name": "conv2d_94", "class_name": "Conv2D"}, {"inbound_nodes": [[["conv2d_86", 0, 0, {}]]], "config": {"beta_constraint": null, "beta_initializer": {"config": {}, "class_name": "Zeros"}, "epsilon": 0.001, "axis": 3, "moving_mean_initializer": {"config": {}, "class_name": "Zeros"}, "moving_variance_initializer": {"config": {}, "class_name": "Ones"}, "trainable": true, "name": "batch_normalization_86", "scale": false, "center": true, "beta_regularizer": null, "gamma_constraint": null, "momentum": 0.99, "gamma_regularizer": null, "gamma_initializer": {"config": {}, "class_name": "Ones"}}, "name": "batch_normalization_86", "class_name": "BatchNormalization"}, {"inbound_nodes": [[["batch_normalization_88", 0, 0, {}]]], "config": {"activation": "relu", "trainable": true, "name": "activation_88"}, "name": "activation_88", "class_name": "Activation"}, {"inbound_nodes": [[["batch_normalization_89", 0, 0, {}]]], "config": {"activation": "relu", "trainable": true, "name": "activation_89"}, "name": "activation_89", "class_name": "Activation"}, {"inbound_nodes": [[["batch_normalization_92", 0, 0, {}]]], "config": {"activation": "relu", "trainable": true, "name": "activation_92"}, "name": "activation_92", "class_name": "Activation"}, {"inbound_nodes": [[["batch_normalization_93", 0, 0, {}]]], "config": {"activation": "relu", "trainable": true, "name": "activation_93"}, "name": "activation_93", "class_name": "Activation"}, {"inbound_nodes": [[["conv2d_94", 0, 0, {}]]], "config": {"beta_constraint": null, "beta_initializer": {"config": {}, "class_name": "Zeros"}, "epsilon": 0.001, "axis": 3, "moving_mean_initializer": {"config": {}, "class_name": "Zeros"}, "moving_variance_initializer": {"config": {}, "class_name": "Ones"}, "trainable": true, "name": "batch_normalization_94", "scale": false, "center": true, "beta_regularizer": null, "gamma_constraint": null, "momentum": 0.99, "gamma_regularizer": null, "gamma_initializer": {"config": {}, "class_name": "Ones"}}, "name": "batch_normalization_94", "class_name": "BatchNormalization"}, {"inbound_nodes": [[["batch_normalization_86", 0, 0, {}]]], "config": {"activation": "relu", "trainable": true, "name": "activation_86"}, "name": "activation_86", "class_name": "Activation"}, {"inbound_nodes": [[["activation_88", 0, 0, {}], ["activation_89", 0, 0, {}]]], "config": {"trainable": true, "name": "mixed9_1", "axis": 3}, "name": "mixed9_1", "class_name": "Concatenate"}, {"inbound_nodes": [[["activation_92", 0, 0, {}], ["activation_93", 0, 0, {}]]], "config": {"trainable": true, "name": "concatenate_2", "axis": 3}, "name": "concatenate_2", "class_name": "Concatenate"}, {"inbound_nodes": [[["batch_normalization_94", 0, 0, {}]]], "config": {"activation": "relu", "trainable": true, "name": "activation_94"}, "name": "activation_94", "class_name": "Activation"}, {"inbound_nodes": [[["activation_86", 0, 0, {}], ["mixed9_1", 0, 0, {}], ["concatenate_2", 0, 0, {}], ["activation_94", 0, 0, {}]]], "config": {"trainable": true, "name": "mixed10", "axis": 3}, "name": "mixed10", "class_name": "Concatenate"}, {"inbound_nodes": [[["mixed10", 0, 0, {}]]], "config": {"trainable": true, "data_format": "channels_last", "name": "global_average_pooling2d_1"}, "name": "global_average_pooling2d_1", "class_name": "GlobalAveragePooling2D"}, {"inbound_nodes": [[["global_average_pooling2d_1", 0, 0, {}]]], "config": {"kernel_initializer": {"config": {"scale": 1.0, "seed": null, "distribution": "uniform", "mode": "fan_avg"}, "class_name": "VarianceScaling"}, "units": 1024, "bias_constraint": null, "bias_regularizer": null, "trainable": true, "name": "dense_1", "bias_initializer": {"config": {}, "class_name": "Zeros"}, "activation": "relu", "activity_regularizer": null, "use_bias": true, "kernel_regularizer": null, "kernel_constraint": null}, "name": "dense_1", "class_name": "Dense"}, {"inbound_nodes": [[["dense_1", 0, 0, {}]]], "config": {"kernel_initializer": {"config": {"scale": 1.0, "seed": null, "distribution": "uniform", "mode": "fan_avg"}, "class_name": "VarianceScaling"}, "units": 8, "bias_constraint": null, "bias_regularizer": null, "trainable": true, "name": "dense_2", "bias_initializer": {"config": {}, "class_name": "Zeros"}, "activation": "softmax", "activity_regularizer": null, "use_bias": true, "kernel_regularizer": null, "kernel_constraint": null}, "name": "dense_2", "class_name": "Dense"}], "name": "model_1", "input_layers": [["input_1", 0, 0]]}, "class_name": "Model", "backend": "tensorflow"}